Snake Game AI (Q-Learning)/v.0.0.1/model/model.pth (torch, 17216 bytes, 4 tensors)

linear1.weight f4 [256, 11]
00000000: 8062 733e 199f a63c 1036 5fbe acaa 88be
00000010: 7169 2ebe 5f5e 83bb 0039 0dbd b0eb 773e
00000020: 3127 babd 1fcd 69be 8a59 4e3e 184f 433d
00000030: a9b2 c73d 3c56 363e c8d1 34be 022d 273e
00000040: cf17 05be cd36 53be 280e 8c3e 0e9d 8f3e
00000050: 2894 413d 6daa 913e 229a 8fbd 308b 8bbc
00000060: 94c4 683e c02f 103e 2e57 d5bd b520 0bbe
00000070: 1996 a73d 509e 8fbd 242e 873e a858 6ebd
00000080: ff7b 45be 74f5 5ebe 59ea 8bbd dbc5 2abe
00000090: d012 2abe 4eb7 d6bd 59f8 663e 17d7 93be
000000a0: 586b 9a3e df51 8bbe 408f a53d 0195 6cbc
000000b0: fd2b 88be 68f6 c73d 9a14 8f3e 5ece 91be
000000c0: 6837 3dbd aa72 1e3e df5f 7a3e 4ae1 8a3e
000000d0: 3880 4dbe 5821 a7bd 1fb4 d9bd eeec f6bd
000000e0: b719 3ebe 0c81 263e 62fb 96be 3975 f0bd
000000f0: d077 d03d 4815 85be fae2 3dbd dab4 873e
00000100: 5a6e 8e3e 79a8 913e 4853 373e 7c99 51be
00000110: 3ccc 18be bd05 5f3d 22a4 443e a32f 2fbd
00000120: 8bc8 053d bf3b f53d ac47 7e3e d01c 8dbc
00000130: 733d 2ebc fcc8 f23d 786c 1e3d e0a4 e13c
00000140: 20af 5dbe 58a7 8abe d435 38be 90dd 953c
00000150: d672 3e3e 0058 6a3e 3e7c cabd 4c27 d5bd
00000160: f46f 753e b065 773e 00a1 083b dea3 87be
00000170: 948c eebd d80d 31be a4c9 883e 4550 6abe
00000180: ac83 94be 20cd 693d 8027 ba3c 32b1 b5bd
00000190: 6dda 4e3e 1eb1 97bd d92f 853e 4e76 483e
000001a0: c2e8 6fbe e636 393e e44a 75be 01d2 443e
000001b0: b8ba 613e 261b 903d 4081 453e 7ae6 3e3d
000001c0: 8a6f 83be 66bb 87bc 8ec4 413e 1584 c6bd
000001d0: 15a9 203e 060c c4bd fe18 1a3e 3559 97be
000001e0: 4de7 193e ac59 54bd 14eb 60be af93 0ebe
000001f0: 2093 9f3c 74b0 d7bd 003e 423c 5266 85be
00000200: de20 0b3e 94d3 4dbe b80e 04bd 3b97 70be
00000210: f85a 153d 7c28 d43d 5657 8e3e ff4e 303d
00000220: b2aa 3d3e b34a 4b3e 650b 96be cb7f 69be
00000230: 1646 703e 7070 873e a81d a33d 88a8 31bd
00000240: 4d4c 163d 6e45 00be 74ae 983e f96e e33d
00000250: 5f28 9bbe 426b 8d3e 5832 463e dda8 853e
00000260: d413 7c3e d9ab 813e 60de b4bc d280 7dbe
00000270: 707c 813d c962 823e 04b6 1cbe d465 123b
00000280: bfb7 48be 5cff 3f3e d9d5 3f3e fc32 673e
00000290: ef13 0bbe 1044 fbbc 5053 c53d 0832 903e
000002a0: a450 7e3e 4e91 02bd a4a4 633e 8c00 7f3e
000002b0: b843 793d 8398 d63d f8cf 463d 1a4f 053e
000002c0: 00c6 9a3d ecca 5e3e ec8e 75be e1b7 5dbe
000002d0: f8bc 513d 0234 33be 0024 c7bc 7d1c 2ebc
000002e0: c219 62be 940a ce3d 66fa 81be 0e7f 373e
000002f0: db35 553e ecfc 1e3e a883 35be 8e03 8c3e
00000300: 7a4a 8e3e 1251 efbd d5d4 37be 8d7e 48be
00000310: 58e3 82be 80e4 533e 80d6 f6bd 5b71 153e
00000320: 04b4 723e da83 8e3e e019 b5bd 9dcf 95be
00000330: 8a43 83be 42da 4c3d 3e24 48be 443a 0b3e
00000340: 8b7c 3e3e 7ec9 33be f83c 4cbe 342d eabd
00000350: ca58 413e 8985 0d3e 3950 053e 509f 3cbe
00000360: 0f7c a7bc d14a 1c3d 8084 83bb 0c13 373e
00000370: 8f0d 80be ef65 17be 2051 503e 4d9a 73bd
00000380: f023 3d3e fb56 953e dd48 763e 4be7 c63c
00000390: 8368 343e aa0c 813e 06c0 66bd 02fe 413e
000003a0: 5c0d 813e 368e 183e 86c4 3d3d 5457 0abd
000003b0: 436a 9cbd 087f 2e3e 4244 29be ba31 c43d
000003c0: 46e5 313e 3992 0a3e b0c7 cc3c 6047 04be
000003d0: 59b6 01be 0084 82be 0206 6fbe 1d9e 883e
000003e0: a027 863e 45ac 8a3c 370f c0bd f014 823e
000003f0: 16a5 923e b644 70be f44e e7bd 00e2 343b
0.23768044 0.020339536 -0.21797967 -0.26692712 -0.1703241 -0.0040090526 -0.034478188 0.24211001
-0.090895064 -0.22832154 0.20151344 0.04768285 0.097508736 0.17806333 -0.1765815 0.16325763
-0.12997364 -0.20626374 0.2735455 0.2804951 0.047260433 0.28450337 -0.070118204 -0.017034143
0.22731239 0.14080715 -0.10417019 -0.13586695 0.08182926 -0.070126176 0.2640239 -0.058190018
-0.19285582 -0.2177332 -0.06831808 -0.16677038 -0.16608739 -0.10484181 0.22555675 -0.28875038
0.30160022 -0.272109 0.080839634 -0.014439822 -0.2659606 0.09763795 0.27945405 -0.28477758
-0.046195418 0.15473428 0.24450634 0.27125007 -0.20068443 -0.08160657 -0.106300585 -0.120569095
-0.18564497 0.16260165 -0.29488665 -0.117411084 0.101791024 -0.259928 -0.04635904 0.26505166
0.27818567 0.28448847 0.17902863 -0.20468706 -0.14921659 0.05444883 0.19203237 -0.04277004
0.032661956 0.11974286 0.24832028 -0.017225653 -0.010634768 0.11854741 0.038677663 0.027544439
-0.21648836 -0.27080798 -0.17989284 0.018294126 0.18598494 0.22885132 -0.098869786 -0.10407886
0.23968488 0.24159884 0.0020847917 -0.26492208 -0.11647907 -0.17290437 0.2671634 -0.22882183
-0.29006708 0.057080388 0.022723913 -0.08871688 0.2020051 -0.07406829 0.26013067 0.1957638
-0.23428634 0.18087348 -0.2395435 0.19220735 0.22043884 0.07036428 0.19287586 0.04660652
-0.25671035 -0.01656885 0.18922636 -0.096931614 0.156895 -0.09572606 0.15048596 -0.29560247
0.1502964 -0.05184333 -0.21964675 -0.13923524 0.019479334 -0.10531703 0.011855602 -0.26054627
0.13586757 -0.20100242 -0.0322406 -0.2349519 0.036463708 0.10359284 0.27801007 0.043044087
0.18522146 0.19852714 -0.29305568 -0.22802655 0.23464236 0.2645297 0.07964641 -0.043373615
0.03669386 -0.12526485 0.29820597 0.11105151 -0.30304238 0.27620894 0.19355142 0.26105395
0.24616939 0.25326422 -0.022078693 -0.24756172 0.06322563 0.25465992 -0.15303808 0.0022338526
-0.19601344 0.18749756 0.1873392 0.22578043 -0.13581823 -0.030672103 0.09635031 0.2816317
0.2483545 -0.031876855 0.22230774 0.24902552 0.060855597 0.10478308 0.04853818 0.13018456
0.07557297 0.21757096 -0.23980302 -0.21652175 0.051205605 -0.17500308 -0.024309158 -0.010626909
-0.22080138 0.10060611 -0.2538635 0.17919561 0.20821325 0.1552617 -0.17726004 0.27346462
0.27791196 -0.11685385 -0.17952283 -0.19579525 -0.25564075 0.20692635 -0.120526314 0.14594023
0.23701483 0.2783497 -0.08842826 -0.2925996 -0.25637466 0.050012834 -0.19545075 0.13596445
0.18602197 -0.17557332 -0.19945133 -0.11434403 0.18881527 0.13820471 0.13018884 -0.18420148
-0.020444898 0.038157288 -0.004013598 0.1787836 -0.25010344 -0.14784978 0.20343447 -0.059473325
0.1847074 0.29167923 0.24051233 0.024280211 0.17617993 0.25204974 -0.05633547 0.18944553
0.25205505 0.14897999 0.046329997 -0.03377469 -0.07637455 0.17040646 -0.16529945 0.09579797
0.17372617 0.13532342 0.024997562 -0.12917852 -0.12667216 -0.25491333 -0.23342136 0.2668313
0.26202106 0.016927848 -0.09377902 0.254066 0.28641576 -0.23463711 -0.11294356 0.0027600527

linear1.bias f4 [256]
00000000: 533e 093e bcc3 f0bd 7791 82bc e93c 873e
00000010: 47d3 5fbe 4fed 363d 65b2 81bd 273a 90be
00000020: b550 21be d367 e9bd a552 a5bd 9828 16bd
00000030: 3a37 40bd aca1 28bb c040 eb3d f309 023e
00000040: d028 753e b880 1abe 97d7 273e f22c 943e
00000050: d766 093e f835 fabd 969d 943e 933a 183e
00000060: 8d6e 873e 8eea 99bd b1a7 813e 0b82 6dbd
00000070: 4625 d3bd 7540 13be 90df 023e b4ed cc3d
00000080: 6358 8ebe 3725 ca3d a805 de3d bd5a 3a3e
00000090: 6a6d ae3c 387f 3f3d fdf8 1f3e 2769 41be
000000a0: 4a50 48be 0a21 45be 8631 983d 13c0 6ebe
000000b0: 4c08 cdbd 4057 27be ce22 923d 6ae8 44bc
000000c0: 2616 08bd 3304 853e 823f 2e3e a58e ec3d
000000d0: 4db2 423e 2dd1 f1bd 2660 3b3e ac0d b53d
000000e0: ca41 1c3d 9f88 40be d5d1 013e 9487 d3bd
000000f0: 192a 0fbe d781 f63c 3266 29be 270c 883e
00000100: 3107 8b3d 27b2 22be c0d2 253e 88d4 9abd
00000110: 925b 0fbe a03f 793d 0e45 49be e3db bdbd
00000120: 185f bf3d 1023 1a3d 34f9 8fbd 5d37 a9bd
00000130: c933 2bbe 8813 84be 059f 383d 08e4 463e
00000140: 4975 a4bd 7ee4 71be 4a4e 843e 9b93 823e
00000150: e365 94be 6de3 183e 43ac 13bd 2b78 933c
00000160: f741 783e 889d 44bd c170 143e ed22 05be
00000170: e136 03be 93a7 333e a495 e4bd 6bd6 373d
00000180: 18fa 4cbe 798c 99be bb86 e4bd 259f 643e
00000190: bcb4 843e 0ec8 45be 21c1 4b3c 948b bcbd
000001a0: 819e a93d 58da 35be d404 30bc a37b abbc
000001b0: 642b 413e abfa 56be a5ab 87be 528b 4fbe
000001c0: 26d6 20be 8ff4 b9bd e872 8abd 5493 8d3d
000001d0: b093 433d 139f b83c 1145 ebbd 6280 573d
000001e0: dec7 913e 1174 8a3e 9419 0bbe 728e a8bd
000001f0: 0955 29bc 0697 8fbe 2506 04bb 6ab7 95be
00000200: d61c 193e b3ce 8c3e aa75 673d b5c4 863e
00000210: c4a2 92be 06ae 06bd 6169 31be baa2 903e
00000220: 907e 0cbe 54f4 893e 1769 22be 899b 03bd
00000230: 57f5 1bbe 8379 b4bd db33 e6bc 758b 0bbe
00000240: 4db2 7ebe bc83 7abe 405f 8dbe a9e3 0bbe
00000250: ff70 24be e297 b8bd 4812 8ebe 6865 71be
00000260: 6da6 b73d f672 763d ae57 46be f085 143e
00000270: 5340 2bbe b3f1 e43b 28ec 343e 5249 dbbb
00000280: 4739 59bd aa01 703e c4a2 21be 5ce2 1f3e
00000290: d67e 90be 8fe2 553d a6a6 1b3e 03c3 193d
000002a0: 2094 8abd d268 98be f267 18be a923 b6bd
000002b0: d592 1d3e 097e 02be f0e2 36be 3134 05be
000002c0: db25 efbd b742 89be a3ff 13bd 3588 1fbe
000002d0: 70cb aabb af7d 783e 938c 8ebd 8ff6 08bd
000002e0: 19d8 553c 681f debd 70f2 27bd 470f e2bd
000002f0: a67b 86bd 263a 26be bacc 2b3e 0cdd 89be
00000300: e3a8 8a3e f4e6 8ebe f40e 2fbe 84dd 5a3e
00000310: 60e7 91be fc94 e3bd 139e d13b fe3b 57be
00000320: e2f5 593d 57b9 823c 26fd 633e 7f53 4bbe
00000330: 515e 943b acff 923d de82 81be fe05 94be
00000340: f894 4d3e 5b8f 413e 7d01 8cbe 7cf1 87be
00000350: d911 92be ebac 0fbe 0b1d 2c3e 9493 08be
00000360: 05b5 263d a6c2 36be 9fcb 5c3e b530 043e
00000370: aebe 8cbe 91e7 11be b6d3 b8bd 6285 1d3c
00000380: 6777 5e3e cbcc 3ebd 1b9d 7d3e 6f41 7fbd
00000390: ca82 5fbe b73f 92be 3279 313e 9b1c 84bc
000003a0: 3516 7abe 11de 943e 9daa 923c 23a1 673d
000003b0: c9dd f5bd 216c 603e ef63 213e 739a 233e
000003c0: 8601 133e b1d9 3a3d 3c1d c0bc 82af eb3a
000003d0: e082 1dbe 3ada 89be 5d37 2fbd f72b 2ebe
000003e0: 260c f93c efe6 b3bc a708 95be df23 8c3d
000003f0: 8f94 b8bd b514 543e 90e5 043e 04b8 513d
0.13402681 -0.11756083 -0.015938504 0.26413658 -0.2185794 0.04465991 -0.06332854 -0.28169367
-0.15753444 -0.11396756 -0.08072404 -0.036659807 -0.04692767 -0.002573113 0.114869595 0.12699108
0.2394135 -0.15088165 0.16390835 0.2894054 0.13418137 -0.12217325 0.2902648 0.14866094
0.2645153 -0.07515441 0.2532325 -0.057985347 -0.10309844 -0.14380057 0.12780595 0.10006276
-0.2780181 0.098703794 0.108409226 0.18198676 0.021292407 0.046752185 0.15622325 -0.18887769
-0.19561878 -0.19250885 0.07431321 -0.23315458 -0.10011348 -0.16341877 0.07135545 -0.012018302
-0.033224247 0.25979766 0.17016414 0.11550645 0.19013329 -0.11807475 0.18298396 0.08840498
0.03814868 -0.18802117 0.12677701 -0.10328594 -0.13980903 0.03009121 -0.1654289 0.26571772
0.06788481 -0.15888272 0.16193676 -0.07560068 -0.13999775 0.060851693 -0.19655249 -0.09270456
0.093443096 0.037631094 -0.070299536 -0.08262513 -0.16718973 -0.2579615 0.045073528 0.19422925
-0.08030183 -0.23622319 0.2584098 0.2550324 -0.28983983 0.14930506 -0.036052953 0.018001636
0.24243914 -0.048001796 0.14496137 -0.13001604 -0.12813903 0.17544393 -0.11161354 0.04488222
-0.20017278 -0.29989985 -0.1115851 0.22326334 0.2591914 -0.19314596 0.012436182 -0.0920631
0.08282185 -0.17759073 -0.010743339 -0.020932978 0.18864208 -0.2099406 -0.26498142 -0.2026799
-0.15706691 -0.09079849 -0.06760198 0.06912866 0.047748268 0.02253679 -0.11487783 0.05261267
0.284728 0.27041677 -0.13583976 -0.08230294 -0.010335215 -0.2804491 -0.0020145264 -0.29241496
0.14952406 0.2750145 0.056508698 0.2632195 -0.28639805 -0.032880805 -0.17325355 0.2824915
-0.13720155 0.2694422 -0.15860401 -0.03213075 -0.15230308 -0.08812239 -0.028100898 -0.13627417
-0.24872704 -0.24464315 -0.27611732 -0.13661064 -0.1605873 -0.09013344 -0.27748322 -0.2357384
0.0896729 0.06016823 -0.19369385 0.14504218 -0.16723756 0.0069868206 0.17668211 -0.00669209
-0.05303314 0.23438135 -0.15784746 0.15613693 -0.28221768 0.052218016 0.1520029 0.037539493
-0.06766534 -0.29767472 -0.14883402 -0.088935204 0.15388043 -0.12743391 -0.17860007 -0.1300819
-0.11677142 -0.26808712 -0.036132466 -0.15579303 -0.00521224 0.24266694 -0.06960406 -0.03343826
0.01305201 -0.10845834 -0.04100269 -0.1103807 -0.06566553 -0.1623312 0.16777316 -0.26926458
0.27081975 -0.27910578 -0.17095548 0.21373564 -0.28496838 -0.11112401 0.0063970177 -0.21018979
0.053213008 0.015957518 0.22264537 -0.1985607 0.004527845 0.07177672 -0.25295156 -0.28910822
0.20076358 0.18902342 -0.27344885 -0.26551425 -0.28529242 -0.14030807 0.16807954 -0.13337547
0.040699977 -0.1784769 0.2156205 0.12909205 -0.27489227 -0.14248492 -0.09024756 0.0096143205
0.21725236 -0.046582025 0.24766962 -0.06231826 -0.21827236 -0.28564236 0.17331389 -0.016126921
-0.24422534 0.29075673 0.01790362 0.056550156 -0.12005193 0.21916248 0.15760778 0.15976886
0.1435605 0.045617763 -0.02345144 0.0017981383 -0.15381956 -0.26924306 -0.042777408 -0.17008959
0.0304013 -0.021960704 -0.29108164 0.06842779 -0.0901271 0.20711024 0.12978196 0.05120088

linear2.weight f4 [3, 256]
00000000: 75ca 4f3d c554 95bc 1e50 09bd 5e9c 693c
00000010: 8fd7 51bd a8a3 8c3c 84ec 9aba 547f 173d
00000020: 50b1 b4bc d1a2 65bd 031f bebc a81e 9e3c
00000030: 4d27 3dbd 2478 c93b 9edd 37bd fa47 d03c
00000040: 778f 4ebd a958 403c 916e ff3c 40cb d03c
00000050: 7583 2f3c c896 113d f115 793d d7d1 17bd
00000060: 5443 57bd fc07 413d c79d 593c 5d58 8f3b
00000070: 0cbd 84bd e169 56bb 7163 153c 9226 4e3c
00000080: 18a4 2d3d 3424 bf3c 5c43 323d 7b5b 643d
00000090: 1c56 19bd 2856 87bc 2b4a d5bb 2552 b83b
000000a0: 504a 3bbc 467a 5ebd 1a27 3fbd 4bab d23c
000000b0: 1f28 4dbd 9056 f6bc 7c62 493c 6a81 ad3c
000000c0: 0f0d b73c 112c 9dbc 3414 cabc 5e00 5b3d
000000d0: 9858 e73c 08b1 2dbd 6403 913c 0271 033d
000000e0: 4ab6 4d3d 339c d4bc d580 fa3c 0b3a fbbc
000000f0: 4348 3d3d 110e 373d 3b45 0b3d 1107 263d
00000100: 2dd4 a43c 5a04 60bd e06b 50bc ea80 573d
00000110: 5fa4 583c f206 2cbd 12dd 043d 1e4f 113d
00000120: 9c1e eebc 1e64 0ebc cc0e 64bd 2c95 403d
00000130: ea66 653d 7053 87bb 73f6 31bd 8488 c7bc
00000140: 4957 c9bb a0c2 d6bc 4c32 d23c 66e7 ca3c
00000150: c03c 27bd 9c88 633b 4597 6cbd 8376 b0bc
00000160: 1ab2 a03c 8603 3b3d 959d 65bb 8077 003d
00000170: 4ed9 493d 1c63 093c f098 843c f6af 703d
00000180: d373 83bd 614c 533d 706c bd3c b515 e3bc
00000190: ca76 84bd 70e8 5c3c 78c0 683d 79e0 cdbc
000001a0: 4cdd 433d 196b 4e3d b3d1 3a3d 7c2a f23c
000001b0: 5a7e 363c 6404 463d 2cb1 e9bc 8cd7 40bd
000001c0: 690a fe3c 70ac 453c a88a 94bc e05e 45bc
000001d0: 1aaa c23c 3069 133d 2250 24bd 03ec 843c
000001e0: f307 44bd 0b14 8fbc ebed e93c b05a 1ebd
000001f0: 7a9e ddbc f265 82bd 9ba1 d63c 176c 77bd
00000200: 45df 31bb e266 d7bc d421 74bd b425 e6bc
00000210: 4c9d f53c 1876 1abb 4480 083d e8d4 6bbd
00000220: 6eb4 733d d3d4 c9bc c4cb 463d 3027 023d
00000230: fc5a f23c 44ef 14bb d55c 293d 3f2c 51bc
00000240: 1819 d8bc 3de0 59bd 64c3 2bbd 70f4 ed3c
00000250: e43c a63c 2ec0 12bd 1062 193c b8c9 0fbd
00000260: e950 b0bc 0401 703d 8d7e f2bc 6fe1 5cbd
00000270: 0240 0cbd 909f 47bc 6deb 1ebd 1c17 fb3c
00000280: 07a2 a13a 5a73 f1bc 5814 463c 4465 3d3d
00000290: cc1a df3c d82f 8c3c a651 6d3d ae93 b43c
000002a0: 41ce 4fbd 80c8 97bc ec41 41bd de4b 06bb
000002b0: 4ec3 a6b8 c7e3 683c 8fde 54bd 5a0a 393d
000002c0: 4fef c2bc a9b8 343d cb6e 04bd 3f83 78bd
000002d0: ab35 173d 57a4 e8bc 92c3 55bd 9005 103d
000002e0: 3a8f 51bd a11a 383d 0a74 0eba 36d8 57bb
000002f0: 093e 2fbd f9a5 2dbc 9fa7 25bd ea77 523b
00000300: ca6a 33bd e0d2 3b3c 86e8 0abd 0e19 a7bc
00000310: af5d fa3c 6321 fc3c 001a 0aba 5517 513d
00000320: be7c 023d 3621 e2bc 9045 14bd d0da 51bd
00000330: 8663 a83c 063e 8cbb 1dfe 7a3d d0bf 503d
00000340: fbed 8f3c 8547 20bd 2b4c 533d 5a3a 233d
00000350: 5b44 89bc e4d8 09bd 172e b9bc fc22 7a3c
00000360: 3329 06bd 389b 7fbd 1c80 a5ba e4cc 023d
00000370: e67f 6dbd 8ce8 703d cdf3 a4bb 7ec0 243d
00000380: 56c5 14bc 80e1 4e3d 2c61 523d 9969 723c
00000390: 2833 773d 6431 6a3d ae95 94bb f94a 5cbc
000003a0: b777 cd3c f6f9 2fbc b4e0 5f3b 44a7 18bd
000003b0: 470f 26bd fa1d 6fbd d6ca 10ba 2ef0 b73b
000003c0: 74a3 893c 2be5 1e3d 5f1e 52bd 298e 9fbc
000003d0: d8b5 253d e247 373d 240d b03c 7fd9 6c3d
000003e0: 3320 b33c f191 1e3d 14ec 9d3c 3f5d 72bd
000003f0: eb3c c83c a5a7 72bd 9c56 03bb a8a0 18bc
0.050730187 -0.018228898 -0.03352367 0.014258472 -0.051230963 0.017167881 -0.0011819755 0.036986664
-0.022057205 -0.056063477 -0.023208147 0.019301727 -0.04618006 0.006148355 -0.044889085 0.025424946
-0.050429787 0.011739888 0.031180652 0.025487542 0.010712494 0.035544187 0.06081194 -0.037065353
-0.052554443 0.047126755 0.013282246 0.0043745474 -0.0648137 -0.0032716917 0.009117947 0.012582438
0.04239282 0.023332693 0.04352127 0.055751305 -0.037435636 -0.016520575 -0.0065090857 0.0056250268
-0.011431292 -0.054315828 -0.04666815 0.025716444 -0.05008709 -0.030070573 0.012291547 0.021179873
0.022345094 -0.019186052 -0.024667837 0.053467147 0.028240487 -0.04240516 0.017701812 0.032090195
0.050222673 -0.025953388 0.03057901 -0.030667325 0.046211492 0.04469115 0.03400157 0.040534083
0.020120705 -0.05469165 -0.012721032 0.052613176 0.013222783 -0.04199881 0.03243739 0.035475843
-0.02906733 -0.008690862 -0.055678174 0.04701726 0.05600635 -0.0041298196 -0.043447923 -0.024357088
-0.0061444384 -0.026215851 0.025658749 0.024768542 -0.04082942 0.0034718877 -0.05776145 -0.021540886
0.019616175 0.045657657 -0.0035036553 0.031363964 0.049279504 0.008385446 0.016186208 0.05876156
-0.06418576 0.051586512 0.023122996 -0.027720312 -0.0646797 0.013483152 0.056824178 -0.025131451
0.047818467 0.050395105 0.04561014 0.029561274 0.011138523 0.04834403 -0.028526865 -0.04708056
0.031010823 0.012065038 -0.018132523 -0.012046546 0.023762751 0.035988986 -0.040115483 0.01622582
-0.047859143 -0.017465612 0.028555831 -0.038660705 -0.027053107 -0.06367101 0.026200106 -0.060405817
-0.0027141136 -0.026294176 -0.059602574 -0.02809415 0.029982232 -0.0023568925 0.03332545 -0.05757609
0.059498243 -0.024637615 0.04853417 0.031775653 0.0295844 -0.0022725621 0.041348297 -0.012766897
-0.026379153 -0.053192366 -0.041934386 0.029047221 0.020292707 -0.035827808 0.009361759 -0.035104483
-0.021522956 0.05859472 -0.02960136 -0.053925928 -0.03424073 -0.012184039 -0.03879874 0.030650668
0.0012331613 -0.02947395 0.012089811 0.046239153 0.027234457 0.017112657 0.057939194 0.022043075
-0.05073381 -0.018528223 -0.04718201 -0.0020491998 -7.951875e-05 0.014214463 -0.05197006 0.045175888
-0.023795752 0.04412142 -0.032332223 -0.06067204 0.036916416 -0.028398676 -0.052188464 0.035161555
-0.051161982 0.04494727 -0.0005434161 -0.0032935268 -0.04278377 -0.010598653 -0.04044306 0.0032114931
-0.043803014 0.011463851 -0.033913158 -0.02039769 0.03056225 0.030777639 -0.00052681565 0.05104764
0.031857245 -0.027603727 -0.036199152 -0.051234066 0.020555269 -0.0042798547 0.061277498 0.050964177
0.017569533 -0.039130706 0.05158631 0.03985057 -0.016756227 -0.03365411 -0.022604985 0.01526713
-0.032754134 -0.062403888 -0.001262668 0.03193368 -0.0579833 0.058815524 -0.005033946 0.040222637
-0.009080252 0.050508022 0.0513622 0.014795684 0.06035152 0.05717601 -0.004534445 -0.013445609
0.025081499 -0.010740748 0.0034161033 -0.037268892 -0.040541913 -0.058378197 -0.0005523389 0.0056133484
0.016801573 0.03879277 -0.051298495 -0.019476967 0.040456623 0.044746287 0.021490641 0.057824608
0.02186594 0.0387134 0.01927761 -0.059170958 0.02444311 -0.05924191 -0.0020040637 -0.009315647

linear2.bias f4 [3]
00000000: 547b 91bc 8645 983c c35b 473d
-0.017759003 0.018587839 0.048671495
