Snake Game AI (Q-Learning)/v.0.0.3 (FINAL WORKING VERSION)/model/model.pth (torch, 17216 bytes, 4 tensors)

linear1.weight f4 [256, 11]
000000 57 c6 e8 bd 7e 18 64 3d a8 10 43 bc b6 a3 c4 bd
       -0.11365955 0.05568742 -0.011905827 -0.09601538
000010 d6 a0 0c be 94 26 3b 3e 21 6b e9 3d e0 ed 6b be
       -0.13733229 0.18276435 0.11397386 -0.23039961
000020 75 c6 39 be 37 27 69 3c d0 76 14 3e cc 26 e9 bc
       -0.18142112 0.014230541 0.14498448 -0.028460883
000030 8d 9e 50 3e 90 b2 01 bd 4b b1 93 bd 9d 78 29 be
       0.20372982 -0.03166443 -0.0721155 -0.16549917
000040 6e a9 fe 3d bc 32 88 be eb b4 2c be 1f 56 96 3d
       0.1243466 -0.26601207 -0.1686589 0.07340645
000050 dc 50 47 be 91 0a 96 bc 2f 1d e4 3c fa cd 8a bd
       -0.19464439 -0.018315585 0.027845947 -0.06777568
000060 45 df d5 bd 5f a8 b7 3d de 2d c2 3d a9 58 5a be
       -0.10442976 0.08967661 0.09481405 -0.21322884
000070 d4 59 ac bc 25 82 37 be a5 f6 1b bd 98 c4 91 3d
       -0.021038927 -0.1792074 -0.038077015 0.071175754
000080 a3 15 b5 3d 00 19 62 be de a7 51 be c2 74 5e 3d
       0.088420175 -0.22079849 -0.20474193 0.054310568
000090 1e 52 55 bc ed 55 85 bd 00 42 42 3e 59 d3 e8 bd
       -0.013020067 -0.0651053 0.1897049 -0.11368436
0000a0 1f 93 46 be 9f de 59 be a9 ae 1b be 86 3d b7 3d
       -0.1939206 -0.2127633 -0.15203346 0.089472815
0000b0 80 39 2b 3e af be 3e 3e da 4d 3f 3b 9c a0 1c be
       0.16721153 0.18627428 0.002919069 -0.15295643
0000c0 14 7d 8e be 1c 0e fa bd 35 0d 81 be 97 e7 2c be
       -0.27829802 -0.122097224 -0.2520539 -0.1688522
0000d0 dc fd 2a 3e 32 56 21 3d 76 3a 89 bd 18 29 05 bc
       0.16698402 0.039388843 -0.06700604 -0.008127473
0000e0 18 23 8e 3d 7e b8 24 be b4 fa 84 bd 92 e1 61 be
       0.06940287 -0.16086003 -0.0649313 -0.22058704
0000f0 7c 6f 65 be 06 54 a1 3c 24 16 75 bd a3 32 07 3e
       -0.22405809 0.019693386 -0.059835568 0.1320291
000100 1a 41 7a be 28 9a 1c be 5a dd cd 3d 4e 52 ba bd
       -0.24438897 -0.15293181 0.10051985 -0.090977296
000110 5b 0e 56 3d bd 95 74 3c d3 6a b7 3d a1 7b 70 bd
       0.052259784 0.0149282785 0.08955922 -0.05871165
000120 46 34 63 be 91 aa 9c bd 28 68 2c be 80 14 16 3b
       -0.2218791 -0.076497205 -0.16836607 0.0022900403
000130 74 6e 2b 3e 05 ca a7 3e ac 74 bd bd b0 05 e6 3d
       0.16741353 0.32771316 -0.09250769 0.112315536
000140 93 ec 1b 3e 69 69 52 3e 98 fb 8e 3c 99 2b 84 be
       0.15226965 0.20548023 0.017453954 -0.25814512
000150 09 70 f2 3d c5 a2 7a bc 5d ac cd bd 28 4d 66 be
       0.11837775 -0.015297596 -0.10042641 -0.2249037
000160 34 54 78 3d 62 21 0a bd 32 6f 62 be 0c aa 1a be
       0.060627177 -0.033723243 -0.2211273 -0.1510393
000170 c3 76 8d 3d 58 8e b7 bc cd 6d 63 3e 91 0f 22 3e
       0.069074176 -0.022406742 0.22209854 0.1582625
000180 24 ad ae 3c 41 a0 4d be 12 cd 2f 3d fe 30 a5 3e
       0.021322794 -0.20080663 0.04292018 0.3226394
000190 8b c4 97 be 2d 7d 27 bd 6f c3 b2 3d a9 b9 5c be
       -0.29642138 -0.04089086 0.08728682 -0.21555199
0001a0 f1 cb 04 be 8a 5d da bd 76 62 b2 be 8c 5a 55 be
       -0.12968422 -0.106623724 -0.34840745 -0.20835322
0001b0 93 c8 de bd 4c 1f 0f be 64 16 3a 3e 66 0a 75 be
       -0.108781 -0.13976783 0.18172604 -0.23929748
0001c0 61 65 bd 3b 9e 9f 34 3e 8f 87 a6 bd 26 4b 08 3e
       0.0057799076 0.17639014 -0.081313245 0.13309917
0001d0 88 32 93 3d e1 f5 41 be de 4f d0 be 07 a6 5f bd
       0.071873724 -0.18941452 -0.40685934 -0.054601695
0001e0 07 9b af bc 5d 0a 8e 3d 7c 43 40 be ba 4a 63 3e
       -0.021436227 0.069355704 -0.18775743 0.22196475
0001f0 ce 5e 43 be ed 0e a5 be f2 16 9f be 63 e5 50 be
       -0.19079134 -0.3223795 -0.31072193 -0.20400004
000200 c1 74 1d be 97 d0 7d be d5 a4 a3 be 4e 97 d5 bd
       -0.1537657 -0.24786602 -0.31961694 -0.1042925
000210 90 a4 bb bd be 86 17 3e cc 82 26 3e c9 8e e7 bd
       -0.09162247 0.14797494 0.16260833 -0.11306531
000220 75 24 cc 3c cb 86 66 be ae fd 2e be 92 54 2f be
       0.024919728 -0.22512357 -0.17088959 -0.17122105
000230 9b 2b c5 3c 51 dc 58 bd c3 49 3d be d3 f0 b1 be
       0.024068644 -0.052944485 -0.18485169 -0.34754047
000240 c0 66 41 be 41 d9 2f be d9 bf 70 3e ad 41 47 3e
       -0.18886852 -0.1717272 0.23510684 0.19458647
000250 8b b2 32 be 98 30 2b be 66 f6 da be 62 7d ad be
       -0.17450921 -0.16717756 -0.42766112 -0.33884722
000260 3c 22 b1 3d eb f8 d9 3d b9 92 30 be 72 1a 9f 3e
       0.08649108 0.106431805 -0.1724347 0.31074864
000270 af ba 2e 3e 0c 15 60 3d 9c 88 d1 3d 20 c2 59 3e
       0.17063402 0.054707572 0.10231134 0.21265459
000280 68 e8 73 bd 84 5b a8 bc 09 ed 24 3e 52 20 a9 3d
       -0.05954781 -0.02055145 0.16106047 0.08258118
000290 d0 96 11 be 3b 07 07 3e a0 82 c1 3d 73 00 b2 3d
       -0.14217687 0.13186352 0.09448743 0.08691492
0002a0 86 b7 e8 bd a1 71 61 be e1 40 68 3d 02 af ab 3d
       -0.11363129 -0.22016002 0.0567025 0.083829895
0002b0 23 07 dc bd 51 83 d6 bc 8c 8f 9d be ed 28 b5 3c
       -0.10743549 -0.026185663 -0.3077358 0.022114241
0002c0 8f 01 a2 3d 9a 65 df 3e 46 46 af be 77 39 f0 bd
       0.079104535 0.43632203 -0.34233302 -0.117297105
0002d0 c4 45 5b 3d ce 9c 9b 3e 85 f8 1e bc 6f c9 0c 3e
       0.05353333 0.3039307 -0.009702806 0.13748716
0002e0 87 72 2a be 1e 0a 36 be 0c eb 0d 3e 2e 25 a8 3d
       -0.16645251 -0.17777297 0.13859195 0.082102165
0002f0 83 b7 3a bd d8 9a 3c 3d 19 79 85 be a4 0e 37 3e
       -0.045585167 0.046046108 -0.26068953 0.17876679
000300 2e 7e 33 3e 52 0e 6b be fd 8f 19 3d b3 47 7a bd
       0.17528602 -0.22954682 0.037490834 -0.061103534
000310 55 32 c3 bd e5 a1 50 be 9f 2a 16 3d 86 be 4e 3e
       -0.095310844 -0.20374258 0.03666174 0.20189866
000320 40 37 a8 3b 03 fb dc bd 70 d7 7d 3e ef 49 34 3e
       0.0051335394 -0.10790064 0.24789214 0.17606328
000330 96 1f 9a be eb 4b 61 3e cf 94 b2 bd a2 41 3e bd
       -0.30102223 0.22001617 -0.08719789 -0.04644931
000340 63 c4 5f 3e 1b 3e 97 be 4b db db 3d 38 32 22 3d
       0.2185226 -0.2953957 0.10735186 0.039598674
000350 48 66 8c 3d b6 12 9d 3d f4 11 ba bd 1a fa f8 bd
       0.06855446 0.076695845 -0.090854555 -0.12157078
000360 b5 3a 54 bd 96 62 14 be 8a dc 70 be 4e 07 cb bd
       -0.0518138 -0.14490733 -0.23521629 -0.09913503
000370 ce 46 63 3e ba db 8b be da 70 c9 bd 04 b6 0b 3e
       0.22194979 -0.27316076 -0.09835978 0.13643652
000380 fb 83 be bd 2f a8 5a bb a5 7d 1d 3d 8a 4e 59 3d
       -0.09302517 -0.0033364405 0.038449902 0.053053416
000390 da a7 a4 bd f9 5c 4c 3d 7f 18 ee 3c 72 71 a7 be
       -0.08039828 0.049893353 0.029064415 -0.3270374
0003a0 44 f2 b9 3e 70 6d 3d bd 99 6e d9 3d 2b d4 b2 bd
       0.36317647 -0.046246946 0.10616798 -0.08731874
0003b0 5e 3a 72 3e 2c b0 19 3e 72 77 1c 3e f8 7d 9a be
       0.23655078 0.1500861 0.1527994 -0.30174232
0003c0 c8 79 61 3d 51 be 5a 3e b4 b6 a7 3e 11 88 6a 3e
       0.05504778 0.21361662 0.3275658 0.22903468
0003d0 ed d4 a9 bd 69 3f c1 3d 4a 30 1c 3e 21 b8 f2 bd
       -0.082925655 0.09435923 0.15252796 -0.11851526
0003e0 62 cd 6c bc ab 94 a8 be 51 b6 26 3e 13 57 c9 3e
       -0.014453264 -0.32925925 0.16280486 0.39324245
0003f0 36 7b 68 3e f0 16 4f 3e f9 c0 8e bd 21 07 54 3e
       0.22703251 0.20223594 -0.069704 0.20705844

linear1.bias f4 [256]
000000 48 d0 5c bd ac 3b 1d bd 62 e9 62 be da a9 4c bd
       -0.05390957 -0.038386986 -0.22159341 -0.04996667
000010 70 ea ac be 95 c2 83 be f5 45 a5 be 2f 1e b4 be
       -0.33772612 -0.25734392 -0.32279935 -0.35179278
000020 f6 4f b7 be a5 ef 39 3e b8 06 b6 3e 3b fe 71 3e
       -0.35803193 0.18157823 0.35552 0.23632137
000030 72 7c 5b bd a7 9e c4 3d 87 12 3c be 8d 04 ac be
       -0.053585477 0.09600573 -0.18366443 -0.33597222
000040 9e 6b 3b be 97 59 a6 be 9a 47 2b be 1c 36 38 be
       -0.18302771 -0.32490227 -0.16726533 -0.17989391
000050 2e c2 46 be 07 f6 76 bd d5 2a a3 be d0 d6 9e 3d
       -0.19410011 -0.060293224 -0.31868616 0.07755816
000060 92 69 87 3d 7a 09 6c be 97 23 5f 3e 72 5a 9a be
       0.06611933 -0.2305049 0.2179092 -0.3014713
000070 b7 e1 fc 3d bc b1 4d be 22 97 82 be ea 05 5d 3e
       0.12347739 -0.20087332 -0.2550593 0.21584287
000080 ec 89 37 be 2e 73 a0 bc d6 d7 91 be c3 06 b1 3d
       -0.17923707 -0.019586172 -0.28484982 0.08643868
000090 ba 9c 2a be 96 3c 8d be 77 a9 00 3e c1 e2 84 be
       -0.16661349 -0.27585286 0.12564646 -0.2595425
0000a0 9b e9 89 3e 7b c2 53 bd 7b 4e c7 bc b2 24 2b 3e
       0.2693604 -0.051699143 -0.024329415 0.16713217
0000b0 2d 8e 76 3d d8 dd 62 be 69 e0 05 be f6 d6 8f be
       0.060194183 -0.22154939 -0.13073887 -0.2809369
0000c0 13 93 35 be f4 8a 0c be 33 7f 36 be 99 b9 6b be
       -0.17731886 -0.13724881 -0.1782196 -0.23020019
0000d0 f6 7e ca be 58 a4 d5 bd 84 2f 72 be a3 46 33 be
       -0.39549989 -0.10431737 -0.23650938 -0.17507415
0000e0 11 7a 12 be ae 28 62 3e 65 85 89 bd 35 49 3f bd
       -0.14304377 0.2208583 -0.06714896 -0.046700675
0000f0 8a 34 be be 49 02 f9 3c b0 08 80 3d 27 00 99 3e
       -0.3714946 0.030396597 0.06251657 0.2988293
000100 b3 01 4f be fc 5c 89 bc 0b 98 29 be 0f c3 82 be
       -0.20215492 -0.016767971 -0.16561906 -0.25539443
000110 02 f8 aa bd fa 1c 9a 3c 89 68 b6 3e 17 e2 3a be
       -0.08348085 0.018812645 0.3562663 -0.18250309
000120 52 57 64 bc 17 1b b9 be 58 ce 51 be 02 12 44 3d
       -0.013936834 -0.3615348 -0.2048887 0.047868736
000130 8b 50 fa bd 51 27 20 bc 8f 24 9a 3d a1 b4 24 bb
       -0.122223936 -0.009774999 0.07526504 -0.0025132077
000140 84 51 10 be d3 8e 82 be 8a 0c d4 bc 14 ef 4e be
       -0.14093596 -0.2549959 -0.025884885 -0.20208389
000150 92 34 34 be 4f c8 ad 3e 40 05 0b 3e be 1e d7 bd
       -0.17598179 0.33941886 0.13576221 -0.105039105
000160 41 60 8c be 14 8a 76 be c5 ca b0 3e b0 b7 96 bc
       -0.27417186 -0.2407611 0.345297 -0.018398136
000170 36 ee 05 be 51 a8 56 bd 3c 9b c0 be d5 e2 ab bd
       -0.13079152 -0.052406613 -0.37618434 -0.08392874
000180 5e e5 8a 3e 34 17 53 3d 07 eb a9 be 5e 70 49 be
       0.27128118 0.0515358 -0.33187124 -0.19671771
000190 39 4d 9c 3d 50 52 f9 bc f0 53 b9 3d 99 bb 2e 3c
       0.076319166 -0.030434757 0.09049213 0.010664844
0001a0 90 db 9e 3d 2f 4e b8 3d 71 fd 4b be 61 57 bb 3d
       0.07756722 0.08999287 -0.19920899 0.091475256
0001b0 db 3d b1 3d da 89 3c be 6c d4 21 be 3d 27 1a be
       0.08654376 -0.18411961 -0.15803689 -0.1505403
0001c0 d9 9b 0c 3c ff 93 0b 3d c7 37 48 3e 21 8e 34 be
       0.008582079 0.034076687 0.19552527 -0.17632343
0001d0 0a 8a e4 be dc cf 9a be b0 ab 74 3d 1a 91 97 3d
       -0.44636565 -0.3023671 0.059734046 0.07400723
0001e0 fc b3 12 3e ab 0e 4f be c1 04 b9 3e cf be 9f bd
       0.14326471 -0.20220439 0.3613644 -0.07800066
0001f0 f3 bc 28 3d 41 df 13 be ed 16 b2 be 75 8e e7 bd
       0.04119582 -0.14440633 -0.34783116 -0.113064684
000200 2b b5 c1 bd 9f cd 6b be b7 ae 8b be 4a da 56 3e
       -0.09458383 -0.23027657 -0.27281734 0.20981708
000210 28 16 85 be e3 c7 76 be c2 cd fc 3c 8a 93 2f be
       -0.25993466 -0.24099688 0.030859832 -0.17146125
000220 03 57 62 be 29 99 1d 3d a4 68 2e be 4d 6e 25 3d
       -0.22103505 0.038476143 -0.17032105 0.040388394
000230 08 6f 5d be 71 56 1f be 16 a5 04 3d e9 39 4d bc
       -0.21624386 -0.15560319 0.032384 -0.012526014
000240 d6 b0 08 be 2d 50 a8 be 77 b1 55 be 00 81 6c 3c
       -0.13348708 -0.3287367 -0.20868479 0.014435053
000250 69 59 28 be fe 63 05 3e 33 16 5d 3e 71 4f 26 be
       -0.16440357 0.13026425 0.215905 -0.16241242
000260 9b 6f c1 be 55 f2 a4 3d e7 91 aa be 95 68 30 be
       -0.3778046 0.08054034 -0.3331444 -0.17227395
000270 63 7d a2 be 24 40 ae 3d a3 db 0c be 0c ac 04 be
       -0.31736287 0.085083276 -0.1375566 -0.12956256
000280 df b0 76 be 9b 2c 5c 3d 37 3a 45 bd d7 dd 6f 3e
       -0.24090908 0.053753477 -0.04815122 0.23424469
000290 fb ed 05 be b7 9f 80 be 99 65 74 be 80 51 7a be
       -0.13079064 -0.25121853 -0.23866881 -0.24445152
0002a0 2a 38 cf bd 98 d4 63 bc a1 12 82 3c d8 17 44 3e
       -0.10118134 -0.013905667 0.015878024 0.1914972
0002b0 a0 8f 2c be 29 c3 7b 3e 40 01 16 3e f1 4c bd be
       -0.16851664 0.24586166 0.14648914 -0.36972764
0002c0 8b 07 73 3e a0 80 1e be 35 f2 64 3e 8f f5 75 bd
       0.23733346 -0.15478754 0.2235802 -0.060048636
0002d0 76 f9 6e be 36 ae 3e be 41 b5 38 be a0 be d3 3e
       -0.2333735 -0.18621144 -0.18037893 0.41356373
0002e0 b4 58 a3 bd 51 97 39 be ca f4 58 be 7d a6 9b bd
       -0.07975903 -0.18124129 -0.2118713 -0.076001145
0002f0 c8 84 12 be 50 24 47 be 72 a5 3b be 4d ca 86 bb
       -0.14308465 -0.19447446 -0.18324831 -0.0041134716
000300 32 62 51 3e 72 bc b0 be ed e5 69 bc b8 4a c0 3d
       0.20447615 -0.34518772 -0.01427601 0.093892515
000310 18 64 4c be 2c 4b 9d be c2 17 2d bd 2d d4 c4 3d
       -0.19960058 -0.30721414 -0.042258985 0.09610782
000320 36 13 93 3d 73 64 92 be 16 ba 54 3c f8 71 4b bc
       0.071813986 -0.28592262 0.0129838195 -0.012417309
000330 d9 bf a0 be 3d 92 22 3e 27 e5 45 be 65 f4 ca bd
       -0.31396368 0.15876098 -0.19325696 -0.09909896
000340 72 ad aa bc af c9 71 3d bc 6e 55 3e b0 e7 0f 3e
       -0.020834658 0.05903023 0.20843023 0.14053226
000350 a1 0a fd bd d3 81 e1 bb 13 73 a0 bd 27 ef be bd
       -0.12355543 -0.0068819313 -0.07834449 -0.093229584
000360 d1 0f 31 be ac 81 4e be e0 39 a6 be 25 57 01 be
       -0.1729119 -0.20166653 -0.3246603 -0.12630899
000370 b2 d4 81 be 7c e8 5d be c2 ec 1c 3d ce 47 a2 be
       -0.25357586 -0.21670717 0.038311727 -0.31695408
000380 3d c1 16 be 61 71 0e bd 96 54 e0 3d 97 c6 1f be
       -0.14722152 -0.034776095 0.109536335 -0.156031
000390 73 8d 40 be 6e e1 cf 3d 9d 4c db 3c b2 88 67 3e
       -0.18803959 0.10150419 0.02676993 0.22610739
0003a0 5e a6 ea bd fb 92 73 bd 7f 81 6c 3d 5b fe 93 be
       -0.11457513 -0.059466343 0.057740685 -0.28904995
0003b0 2b eb 12 3e 6f c1 8c bc 1f 7a 32 be 8e 73 90 be
       0.14347522 -0.01718208 -0.17429398 -0.2821316
0003c0 f4 70 31 bd 56 d1 51 be 88 0f 27 3d f3 98 55 be
       -0.04332061 -0.20490012 0.040786296 -0.20859127
0003d0 de 3d d3 3d 7d 2c 06 be 94 12 62 3c 6e d0 be 3c
       0.103145346 -0.13102908 0.013798375 0.023292746
0003e0 54 a6 26 3e 3c 97 e3 bc 38 30 b1 3c 08 39 1b bd
       0.16274387 -0.027782075 0.021629438 -0.037896186
0003f0 eb 80 d7 3d 74 39 9f 3d 95 fe 86 3e d9 ea 89 3d
       0.10522636 0.0777463 0.26366106 0.06734247

linear2.weight f4 [3, 256]
000000 42 45 c4 3d a1 b4 e9 bd 76 f8 99 bb 7d 2a c0 bb
       0.095835224 -0.11411405 -0.0046988083 -0.00586444
000010 fa 27 8e 3c f8 e2 24 bd ed be 0b bc be 54 fa bc
       0.017353047 -0.040255517 -0.008529407 -0.030557986
000020 6e cd 82 bd 88 52 04 be 7e 8d 06 3e 3c 91 71 3d
       -0.06386839 -0.12922108 0.13139912 0.058976397
000030 f6 61 1a bd 99 16 43 bc d8 2d e7 3b a7 eb 9a bc
       -0.03769108 -0.011907243 0.0070550255 -0.018911196
000040 b7 89 eb bd 7d 91 0c bc de b0 2a be 74 c9 80 3c
       -0.115008764 -0.008579609 -0.16669032 0.01572106
000050 f8 2d 1d ba b9 96 c0 3d c6 b2 64 be 91 8f 94 3c
       -0.00059959246 0.09403748 -0.22333822 0.018134864
000060 3c 97 64 bd f7 10 d1 bc 51 42 14 3e be 1c 9c bb
       -0.05580829 -0.025520785 0.14478423 -0.0047641685
000070 57 c4 3c 3d 42 02 1c bd 72 a1 4b bd 68 53 fd 3d
       0.04608568 -0.03808809 -0.049714513 0.12369424
000080 4e ca 77 3d d5 9e 63 be 10 c6 93 bc ce 27 3c 3a
       0.060495667 -0.22228558 -0.01803878 0.0007177562
000090 de 83 87 bc 62 bd 45 be 1a c7 ce 3d 5b 74 0f 3d
       -0.016542371 -0.19310525 0.10096569 0.035023075
0000a0 ce 42 c3 3d 0d 7a 23 bc 03 3a 5a 3d 9b 5a 80 3e
       0.09534226 -0.00997783 0.05327798 0.25069126
0000b0 75 d0 ad 3d cb 5c 5a bd e9 c8 45 be 78 16 a0 bc
       0.08487026 -0.05331115 -0.19314922 -0.019541964
0000c0 cc 31 37 bd 30 02 8a bc 86 bd 11 3e d3 84 ef bd
       -0.044725224 -0.016846746 0.14232454 -0.11695256
0000d0 18 5c 51 bc a0 42 93 bd a2 5d 2c 3e 05 76 17 be
       -0.0127783045 -0.07190442 0.16832593 -0.14791115
0000e0 34 71 ef bd 45 b5 c6 3d fb d8 e2 bd 46 24 1e bd
       -0.11691514 0.09702543 -0.11076542 -0.03860881
0000f0 a7 5e 58 3a 11 f2 3e be f3 47 4e bd 4a 23 10 3e
       0.00082538504 -0.18647029 -0.050361585 0.14075962
000100 c3 30 83 bd 99 da e7 bc 38 82 e8 bd e8 12 47 be
       -0.06405785 -0.028302478 -0.11352962 -0.19440806
000110 98 ee bd 3d 7a eb 35 bd 4d 68 3a 3e 22 bb 8e bd
       0.09274024 -0.04441402 0.1820385 -0.069692865
000120 b5 8d 85 bd f7 68 39 bc e4 1c c4 bd 22 e5 a0 be
       -0.06521169 -0.0113165295 -0.09575823 -0.31424814
000130 ea 1b a3 bc aa 6e 31 3c e6 bb 39 3d 0f 9b fc bd
       -0.019910771 0.010829607 0.04534521 -0.123342626
000140 bb de 08 be 0e 6e dd bc ac 38 d5 3d ad 0d be 3b
       -0.13366215 -0.027030017 0.104112 0.00579997
000150 a4 ea 09 3d 73 b6 06 3e 3a 99 11 3d 06 1d b4 3b
       0.033671036 0.13155536 0.03554652 0.005496624
000160 06 30 81 bd d0 3f d4 bc f0 d8 cb 3d d4 21 8d 3d
       -0.06307988 -0.025909334 0.09953487 0.06891218
000170 e9 19 e3 bd 57 73 c5 bc 66 21 e7 bc f2 16 09 3e
       -0.11088926 -0.02410285 -0.028214168 0.13387659
000180 f0 5e df 3d 77 f6 3d ba 03 25 bf 3c cf de f2 bc
       0.1090678 -0.0007246504 0.023333078 -0.029647259
000190 a0 56 09 3e 02 e2 0c be 09 a8 83 3e a0 a8 6c 3e
       0.13411951 -0.1375809 0.25714138 0.231112
0001a0 8a dd 35 be a2 ab 27 3d 85 27 bc bd 88 b0 b5 3d
       -0.17760292 0.040935166 -0.09187225 0.08871561
0001b0 f8 a7 b9 bc 16 be 4e bc 02 89 cb bd 33 31 4b be
       -0.022663102 -0.012618562 -0.099382415 -0.19842987
0001c0 4a 36 a4 bd 55 43 11 3e 27 91 8f 3d af 66 8f 3b
       -0.08018167 0.14185841 0.070101075 0.0043762545
0001d0 67 b1 54 b9 a8 1b dc 3b 17 67 19 3d 4b fd 77 bd
       -0.00020283983 0.006717164 0.03745183 -0.060544293
0001e0 26 cf 21 3e 50 1a 2d bd 89 a0 3a 3e 1c 3d 13 bc
       0.15801677 -0.04226142 0.18225302 -0.008986738
0001f0 63 0f b5 bd d8 4f 0a 3d 9d 05 da bc 92 1a 77 bb
       -0.088408254 0.03376755 -0.026614005 -0.0037705046
000200 eb 9b 12 3d ee 22 f3 bd 5c 17 e7 bb e0 a6 7f 3d
       0.035793226 -0.11871897 -0.007052345 0.062415004
000210 6b db 2b be 6d 6d 7e be 69 86 ac bc d8 d8 69 bc
       -0.1678292 -0.2484643 -0.021060186 -0.014272891
000220 20 a0 56 bd ba 56 e2 3d d7 08 0c be a6 98 99 bd
       -0.0523988 0.11051698 -0.13675247 -0.074998185
000230 1e 34 ac 3d 82 13 d0 bd 1c be 8d 3d c0 eb 62 be
       0.08408378 -0.10159971 0.06921026 -0.22160244
000240 7b 0c 8d be 42 54 0b 3d e0 e6 49 3c d8 4d 46 3d
       -0.27548584 0.0340159 0.012323111 0.04841408
000250 44 5e 9d 3c ee 49 71 3e f7 05 80 bd 65 e6 eb bd
       0.019209988 0.23563358 -0.06251138 -0.11518554
000260 ae f0 a7 bc 99 e6 25 be 86 75 e8 bc a5 a6 9b bd
       -0.020500507 -0.16201247 -0.028376352 -0.07600144
000270 59 93 60 be e1 a1 b7 bd ac d2 01 bd b2 e5 52 bd
       -0.21931209 -0.08966423 -0.031695053 -0.051488586
000280 b9 67 b5 3d 88 73 b7 bb c3 05 10 3e b4 ad db 3d
       0.08857674 -0.005598489 0.14064698 0.107264906
000290 bf 61 ca 3d 4e b8 4a 3b 7b 94 a2 3a 87 cc 93 bc
       0.09881925 0.0030932608 0.001240387 -0.018041862
0002a0 c9 b2 27 3c 9b 69 fe bd 28 92 45 3d 3e 98 bc 3d
       0.010235497 -0.124224864 0.04823509 0.092087254
0002b0 e5 21 17 bd 10 7b 1b 3e 61 00 ba 3c 1a ea 88 bc
       -0.03689756 0.15183663 0.022705259 -0.01671319
0002c0 8b cd 22 3c 02 c0 88 bc 09 1d a8 3d a0 7e f5 3d
       0.009936701 -0.016693119 0.08208663 0.119870424
0002d0 8b b0 2f 3e c8 5e 67 bc 03 b0 97 bc e6 a1 14 3e
       0.1715719 -0.014121719 -0.018516546 0.14514884
0002e0 e1 fd c2 3b 72 7b 73 bd 58 b1 01 be 39 bb d0 3d
       0.005950675 -0.0594439 -0.12665308 0.1019196
0002f0 34 a4 26 3e 11 12 31 be 49 fb db bc ae ed 71 bd
       0.16273576 -0.17292048 -0.02685322 -0.05906456
000300 aa 28 ce 3d 93 01 9f bc 09 90 43 bd 78 44 4b 3d
       0.1006635 -0.01940993 -0.047744785 0.049625844
000310 71 e9 7a b9 9f b8 9a 3c 68 a6 8c bc fc 5b 99 3d
       -0.00023928822 0.018886862 -0.017169192 0.07488248
000320 ed ab ca 3c 70 16 3a 3d 16 76 32 bc f9 f6 23 be
       0.024740184 0.045431554 -0.010892412 -0.16012181
000330 3a 55 f8 bd 22 3f a9 3d 3e 75 30 3c b4 c4 80 bd
       -0.12125631 0.08263995 0.01077014 -0.06287518
000340 4a 9a 3a 3c ca 3b 92 3d 76 b6 0d 3e 62 a5 6a 3a
       0.011389324 0.0714031 0.13839135 0.00089510356
000350 62 94 f8 3c 7b 94 7b 3d d4 8d 99 bc a8 54 bd bc
       0.030344192 0.0614209 -0.018744387 -0.023111656
000360 6f 6b cc 3d 34 8b 1f be 46 28 01 bc 15 a3 05 be
       0.09981429 -0.15580446 -0.007883137 -0.13050492
000370 3d 4d 7a be e4 0f 8c 3c 75 b1 80 3d ab 75 bc bd
       -0.24443527 0.017097421 0.06283847 -0.09202131
000380 54 05 42 bc ab 9c 02 be eb f6 0d 3e 52 1d fc bc
       -0.011842091 -0.12755077 0.13863723 -0.0307757
000390 92 69 38 3d 04 21 d3 3d 07 8e ec bd 0f 3d d3 3d
       0.045022555 0.103090316 -0.11550527 0.103143804
0003a0 81 c5 2a bd 9d b7 a1 bc b3 e7 74 3d 3d 3b de bd
       -0.04169226 -0.019740874 0.059791278 -0.108511426
0003b0 63 b5 d3 3d e4 21 bb bc 1a 67 83 3e 0d f5 11 3d
       0.10337331 -0.022843309 0.25664598 0.03563409
0003c0 6d 85 0c bd 5a 98 00 bd 2c e9 0f bb e1 ec e9 ba
       -0.034306932 -0.031395294 -0.002195905 -0.0017847085
0003d0 25 e8 22 3d e7 d4 35 be b2 ff 9a 3c 6d 5e 02 3c
       0.03977217 -0.17756997 0.018920753 0.007957083
0003e0 7b db 4d be 81 69 31 bd a1 9d dd 3d 74 98 55 bd
       -0.20103256 -0.043313507 0.10821081 -0.052147344
0003f0 86 15 20 3c 11 20 9c 3d 96 c7 6b 3e 18 01 8c 3d
       0.009770757 0.07623304 0.23025355 0.06836146

linear2.bias f4 [3]
000000 ba 4b e8 3d 1d 01 a9 3a 5c 13 65 bc
       0.11342569 0.0012894009 -0.013981666
