Snake Game AI (Q-Learning)/v.0.0.3 (FINAL WORKING VERSION)/model/model.pth (torch, 17216 bytes, 4 tensors)

linear1.weight f4 [256, 11]
0.18311319 -0.3519146 -0.019420126 -0.079165034 0.093568236 -0.057751 0.06460589 -0.29426265
-0.0456515 -0.3196043 0.003457719 -0.32855105 0.067671455 0.5219095 -0.40187916 -0.19667335
-0.42363253 0.25818613 -0.3224869 0.33481228 -0.7383075 -0.12259192 -0.06753348 -0.2623736
-0.25379547 -0.030176956 -0.21250959 0.075789414 -0.1193644 -0.12683503 0.040666968 -0.23542795
-0.082657516 0.123048216 -0.098756455 -0.012203749 0.0073034917 -0.09092934 0.002399095 -0.117995456
-0.12635912 0.08919392 -0.19467318 0.010754168 0.20473185 -0.22701372 0.30699039 0.5765171
-0.02041664 0.17871667 0.1877537 -0.6444663 0.26142573 -0.30209324 -0.026232533 0.40443423
-0.4991291 0.35221234 0.13333845 0.010036827 -0.30647224 -0.24141856 -0.21358386 -0.47158867
0.15565056 -0.11462814 0.20176068 -0.02386298 -0.70533663 -0.2823965 -0.49553522 0.20150843
-0.5214944 0.024772577 -0.69631964 -0.46190548 -0.69837564 -0.036094584 -0.0132921245 -0.2756042
0.12131996 -0.26473272 -0.2447979 0.11123048 0.080608204 -0.11495134 0.13472968 -0.016701609
-0.33346924 0.4490958 0.3098589 -0.17079288 -0.5283558 0.076163 0.066105075 -0.0030777133
-0.6211896 -0.12976833 -0.0066914093 0.6715929 -0.010126764 -0.024438111 0.5225462 0.43802696
-0.5410498 -0.39772946 -0.67730457 -0.5727262 0.41090354 0.24324976 -0.027820226 0.09567203
-0.32874283 -0.24626045 -0.052590262 -0.03555221 -0.104684465 -0.32247695 -0.07364176 -0.117285326
-0.5137709 -0.33444348 -0.07098304 -0.2622465 -0.17239654 0.10096598 -0.24878058 -0.30380324
-0.25004518 0.07088126 -0.3147867 -0.2484411 -0.1103019 -0.23423281 0.07165258 -0.19255982
0.1138383 -0.056973983 -0.03106159 0.09519516 -0.2635145 0.030623011 -0.19013833 -0.37001067
0.4922487 -0.0404927 -0.35920194 -0.16378956 0.24480228 -0.39813465 -0.3337135 0.24076205
-0.0012934826 -0.6156534 -0.0907483 -0.2451899 0.27791113 -0.1364762 -0.036708552 -0.09190289
-0.045556612 -0.055281334 -0.13365787 0.047581676 0.023750106 -0.3684519 0.19591326 -0.29115006
0.019258998 -0.2536603 -0.0345086 -0.113031104 -0.05290715 0.15384509 -0.05858395 -0.021525873
-0.27507162 -0.16949438 0.3867474 -0.32024598 -0.31089967 -0.43645278 0.090529405 -0.20482333
0.27818862 -0.54396933 -0.11237026 -0.25949988 -0.09127975 0.35026732 -0.13569912 0.15223718
0.20156424 -0.43909892 0.14553374 -0.3639918 -0.21923055 -0.42863372 0.14018407 -0.4933138
-0.46043342 0.38020647 0.32276207 -0.41912404 -0.377559 -0.8722304 -0.8944566 0.21829192
0.21274175 -0.13686264 -0.12124637 0.04713609 -0.4116475 0.30652636 0.33254835 0.27844983
-0.8372837 -0.50153285 -0.65567803 -0.6508662 -0.30118585 -0.15871729 0.016683392 -0.028264582
-0.064898446 -0.26590237 0.13791855 0.055787448 -0.24837351 -0.10733921 -0.115449 0.029219743
-0.007892298 -0.05262123 0.12705968 0.08876724 -0.0028277424 0.10531248 -0.274478 -0.2674858
-0.27921322 -0.112160526 0.019430127 -0.15554483 -0.06784199 0.072048604 0.10350121 0.017763045
0.11806529 0.043325257 0.18727928 0.025102027 -0.032798845 -0.23012581 -0.4081236 -0.114349686
00000000: 0682 3b3e 272e b4be f516 9fbc 4721 a2bd
00000010: b4a0 bf3d 508c 6cbd 1850 843d 98a9 96be
00000020: 11fd 3abd 2da3 a3be e69a 623b d837 a8be
00000030: 5597 8a3d dc9b 053f 1bc3 cdbe bd64 49be
00000040: 5de6 d8be f930 843e 011d a5be 846c ab3e
00000050: b801 3dbf 7911 fbbd fe4e 8abd d555 86be
00000060: 7bf1 81be aa35 f7bc 1d9c 59be 7b37 9b3d
00000070: 5375 f4bd 0be1 01be 6892 263d 0614 71be
00000080: 5848 a9bd b400 fc3d d340 cabd 3cf2 47bc
00000090: 2152 ef3b 2939 babd 233a 1d3b 9aa7 f1bd
000000a0: 4964 01be 4dab b63d 6858 47be 4032 303c
000000b0: 3aa5 513e 4976 68be d82d 9d3e a096 133f
000000c0: cc40 a7bc 8101 373e 8242 403e befb 24bf
000000d0: 98d9 853e f7ab 9abe 9ce5 d6bc 0112 cf3e
000000e0: d98d ffbe 2d55 b43e e089 083e 8171 243c
000000f0: eee9 9cbe 6d36 77be bab5 5abe 1274 f1be
00000100: dc62 1f3e 29c2 eabd 5a9a 4e3e 4c7c c3bc
00000110: f190 34bf 4696 90be cbb6 fdbe 3a58 4e3e
00000120: a880 05bf dcef ca3c 0142 32bf e07e ecbe
00000130: bfc8 32bf ead7 13bd 36c7 59bc fe1b 8dbe
00000140: 9976 f83d 0c8b 87be 4dac 7abe cecc e33d
00000150: ea15 a53d 9c6b ebbd 94f6 093e d0d1 88bc
00000160: 7bbc aabe e2ef e53e d3a5 9e3e 54e4 2ebe
00000170: 5342 07bf 59fb 9b3d 1962 873d 76b3 49bb
00000180: 4806 1fbf fde1 04be 9c43 dbbb 83ed 2b3f
00000190: baea 25bc 6f32 c8bc 96c5 053f 1245 e03e
000001a0: 3d82 0abf 32a3 cbbe d563 2dbf 2f9e 12bf
000001b0: f361 d23e 7716 793e 3ee7 e3bc b2ef c33d
000001c0: fb50 a8be b32b 7cbe e368 57bd 329f 11bd
000001d0: cf64 d6bd b31b a5be 7ed1 96bd 4a33 f0bd
000001e0: 7d86 03bf 2d3c abbe 8e5f 91bd 2c45 86be
000001f0: b888 30be 40c7 ce3d 56c0 7ebe 198c 9bbe
00000200: ec05 80be 322a 913d b92b a1be 5867 7ebe
00000210: f6e5 e1bd bada 6fbe 96be 923d 672e 45be
00000220: 0e24 e93d 8d5d 69bd e074 febc aef5 c23d
00000230: 5feb 86be 1cdd fa3c 9fb3 42be 0a72 bdbe
00000240: 0608 fc3e acdb 25bd 51e9 b7be 73b8 27be
00000250: 73ad 7a3e 4ed8 cbbe 7fdc aabe 548a 763e
00000260: 138a a9ba 769b 1dbf 3fda b9bd 1013 7bbe
00000270: 5e4a 8e3e 6bc0 0bbe b55b 16bd 9537 bcbd
00000280: 9299 3abd ae6e 62bd 9cdd 08be 01e5 423d
00000290: 958f c23c baa5 bcbe 7c9d 483e 9f11 95be
000002a0: 0cc5 9d3c c3df 81be e458 0dbd da7c e7bd
000002b0: 2bb5 58bd 9189 1d3e b9f5 6fbd 0757 b0bc
000002c0: 30d6 8cbe ef8f 2dbe c103 c63e 48f7 a3be
000002d0: 3e2e 9fbe bd76 dfbe 7b67 b93d 35bd 51be
000002e0: bd6e 8e3e 9341 0bbf 6122 e6bd 2bdd 84be
000002f0: e1f0 babd 3d56 b33e b6f4 0abe 10e4 1b3e
00000300: db66 4e3e 93d1 e0be cc06 153e 225d babe
00000310: f97d 60be e175 dbbe 6a8c 0f3e a093 fcbe
00000320: eebd ebbe 6caa c23e 1241 a53e 6d97 d6be
00000330: 6a4f c1be 7e4a 5fbf 1cfb 64bf eb87 5f3e
00000340: f9d8 593e b825 0cbe 0450 f8bd c611 413d
00000350: 76c3 d2be 06f1 9c3e c743 aa3e fa90 8e3e
00000360: 3958 56bf 7564 00bf 84da 27bf 2b9f 26bf
00000370: 0835 9abe c986 22be 9cab 883c 208b e7bc
00000380: 7ae9 84bd 5b24 88be 853a 0d3e 6181 643d
00000390: a055 7ebe a9d4 dbbd 8670 ecbd 3e5e ef3c
000003a0: b24e 01bc 5c89 57bd ef1b 023e 99cb b53d
000003b0: a551 39bb 12ae d73d 6188 8cbe e6f3 88be
000003c0: 09f5 8ebe 6bb4 e5bd ee2b 9f3c 2547 1fbe
000003d0: bef0 8abd 388e 933d 71f8 d33d ce83 913c
000003e0: 37cc f13d d375 313d 24c6 3f3e c4a2 cd3c
000003f0: 1558 06bd 1aa6 6bbe 94f5 d0be 2b30 eabd

linear1.bias f4 [256]
-0.28024602 -0.5052716 -0.13178772 -0.2806405 -0.4693107 -0.24168454 0.2118655 -0.35224488
-0.3231169 0.1084762 -0.06857788 -0.1728022 -0.38040167 -0.48209792 -0.36775833 -0.44350693
-0.2808087 -0.2932502 0.16424115 0.80383813 -0.243703 -0.07320647 -0.4087081 0.1333195
-0.24932699 -0.27229363 -0.21960877 -0.32721367 -0.1539664 -0.23687528 -0.34053856 -0.32073528
-0.86062807 -0.21124148 -0.13101819 0.048747055 -0.16977328 -0.42435354 0.12975895 -0.08612467
-0.10646645 -0.3632009 -0.21888544 0.08576419 -0.41368002 -0.25410336 -0.40629756 -0.1814274
-0.06454098 -0.29140598 -0.001031603 -0.44380695 -0.53489244 -0.4097289 -0.4922331 -0.501142
0.07129084 0.072923735 -0.2229712 0.2958264 -0.19508469 -0.036991492 -0.5409145 -0.020522472
-0.25800052 -0.16697451 -0.09293321 0.050966263 -0.34330004 -0.326383 -0.033410694 -0.63744164
-0.07645138 -0.13539454 -0.0048804395 -0.5271303 -0.45504788 -0.33502507 -0.30902892 -0.85143614
0.12790185 -0.13491984 -0.2712105 -0.16734512 -0.037209034 0.3049197 -0.5619176 0.04409878
0.24637626 -0.1624305 -0.3433809 -0.3799211 -0.34550923 0.057945505 -0.44152713 -0.17483571
-0.116004884 -0.16612028 0.08073343 0.4973207 -0.30006975 0.44075668 -0.6803876 -0.79611737
0.10459663 -0.28170228 -0.1311537 -0.3037621 -0.18162861 -0.30837744 -0.08684845 -0.22080511
-0.19870318 -0.26071486 -0.19493264 -0.22468771 -0.23928751 -0.42208263 -0.19820882 -0.0473385
-0.60775083 -0.2185743 -0.677724 -0.33721086 -0.022703972 -0.27956003 -0.57984495 -0.15998904
-0.4565343 -0.28034842 -0.32554677 -0.5414015 -0.081122264 -0.18861209 -0.107983865 -0.19918698
0.0049519935 -0.43938437 -0.34170982 -0.06146829 0.023869874 -0.1532661 -0.23581839 -0.07358789
-0.11534954 0.48367137 -0.20936331 0.11848114 -0.19407864 -0.4282396 -0.043322593 -0.37890235
-0.24285707 -0.25938347 0.18578543 -0.2852947 -0.11433935 -0.22542399 -0.3806878 -0.31094095
0.03093893 -0.30054095 -0.19174324 -0.4214922 -0.06819774 -0.42802325 -0.38273102 -0.2698762
0.39490083 -0.40270093 0.0021160296 -0.33199257 -0.47588325 -0.27475446 -0.30736005 -0.19044827
-0.23414811 -0.10304147 -0.17815402 -0.12756763 -0.16729131 -0.2331958 0.1301581 -0.07792289
0.657128 -0.30383992 -0.44006452 0.06631346 -0.0473356 -0.02912496 -0.12030381 -0.28672183
-0.070477985 -0.14595795 0.051679023 -0.34147492 -0.08364125 -0.32673427 -0.1151362 -0.38945717
0.077296786 0.2613179 0.15613513 -0.18241116 -0.5336209 -0.458998 -0.27530205 -0.24468032
-0.14933656 -0.27186555 -0.3110694 -0.61472785 -0.10418736 -0.07838527 0.14886706 -0.19677429
-0.17228839 -0.4067238 0.5966036 -0.067057915 0.25885078 -0.3002629 -0.5200651 -0.25051472
-0.053231873 -0.31286505 -0.50877535 -0.02172783 -0.15819263 -0.29737714 -0.2973969 -0.60962266
-0.38389483 -0.17623994 -0.12063657 -0.82427734 -0.12299792 -0.3995991 -0.18119343 -0.06502918
-0.47567323 -0.59109384 -0.39155102 -0.26291078 0.20867646 -0.15569401 -0.38081732 -0.42246288
0.18932971 -0.31267482 -0.1433426 -0.23588122 -0.417796 -0.39373222 -0.38885683 -0.24944592
00000000: 687c 8fbe 7b59 01bf 5cf3 06be 1db0 8fbe
00000010: 7e49 f0be 277c 77be 45f3 583e 7159 b4be
00000020: 946f a5be c528 de3d 8f72 8cbd 0ff3 30be
00000030: 02c4 c2be 8ad5 f6be d24a bcbe 5713 e3be
00000040: 28c6 8fbe e424 96be d52e 283e 56c8 4d3f
00000050: 478d 79be 46ed 95bd 3042 d1be e884 083e
00000060: 934f 7fbe 126a 8bbe 1fe1 60be 8d88 a7be
00000070: 5ea9 1dbe 6f8f 72be 125b aebe 6a37 a4be
00000080: 1f52 5cbf b04f 58be a229 06be feaa 473d
00000090: 0cd9 2dbe de44 d9be 88df 043e 2262 b0bd
000000a0: 150b dabd 78f5 b9be 8123 60be 23a5 af3d
000000b0: decd d3be d619 82be 3c06 d0be 1bc8 39be
000000c0: 102e 84bd 2a33 95be da36 87ba aa3a e3be
000000d0: b6ee 08bf fdc7 d1be fa05 fcbe d84a 00bf
000000e0: ef00 923d 0a59 953d 9052 64be 8f76 973e
000000f0: 48c4 47be 6484 17bd 5f79 0abf be1e a8bc
00000100: a518 84be 5efb 2abe c453 bebd 00c2 503d
00000110: 06c5 afbe ac1b a7be a7d9 08bd 602f 23bf
00000120: 8b92 9cbd dea4 0abe 18ec 9fbb 03f2 06bf
00000130: 09fc e8be 6888 abbe 0a39 9ebe b8f7 59bf
00000140: b4f8 023e 6d28 0abe 1adc 8abe 855c 2bbe
00000150: 8068 18bd 6f1e 9c3e d5d9 0fbf eca0 343d
00000160: 0f4a 7c3e 2e54 26be 9fcf afbe 0585 c2be
00000170: 96e6 b0be 4458 6d3d d80f e2be 2208 33be
00000180: f893 edbd 6f1b 2abe 9257 a53d d2a0 fe3e
00000190: bea2 99be dcaa e13e e22d 2ebf 59ce 4bbf
000001a0: c236 d63d 483b 90be 284d 06be b586 9bbe
000001b0: dafc 39be a6e3 9dbe 9add b1bd bc1a 62be
000001c0: d978 4bbe 6b7c 85be 6c9c 47be 8914 66be
000001d0: c907 75be 371b d8be 41f7 4abe 04e6 41bd
000001e0: 8f95 1bbf f1d1 5fbe 527f 2dbf e7a6 acbe
000001f0: aefd b9bc 7e22 8fbe b870 14bf 2bd4 23be
00000200: ddbe e9be d489 8fbe 11ae a6be 4a99 0abf
00000210: 6e23 a6bd 8723 41be a526 ddbd acf7 4bbe
00000220: 5544 a23b fdf6 e0be 97f4 aebe 2cc6 7bbd
00000230: c18a c33c caf1 1cbe 607a 71be 3fb5 96bd
00000240: 613c ecbd c6a3 f73e 5663 56be 3da6 f23d
00000250: 8dbc 46be 3942 dbbe 0873 31bd 7dff c1be
00000260: 86af 78be e9cd 84be 893e 3e3e 2612 92be
00000270: c02a eabd 8cd5 66be 83e9 c2be a733 9fbe
00000280: a473 fd3c 81e0 99be 5758 44be d3cd d7be
00000290: 42ab 8bbd dd25 dbbe 52f5 c3be 372d 8abe
000002a0: 7130 ca3e d12e cebe 16ad 0a3b eefa a9be
000002b0: f8a6 f3be 9eac 8cbe 4c5e 9dbe df04 43be
000002c0: 86c4 6fbe 6807 d3bd 026e 36be 17a1 02be
000002d0: 6a4e 2bbe e1ca 6ebe 2a48 053e 0996 9fbd
000002e0: 8a39 283f e890 9bbe 2350 e1be 5acf 873d
000002f0: f9e2 41bd 7897 eebc d861 f6bd 34cd 92be
00000300: c356 90bd 0076 15be 62ad 533d cdd5 aebe
00000310: 1b4c abbd b749 a7be 87cc ebbd ee66 c7be
00000320: c74d 9e3d 76cb 853e e3e1 1f3e fec9 3abe
00000330: 619b 08bf c901 ebbe 64f4 8cbe 7a8d 7abe
00000340: afeb 18be f631 8bbe 7d44 9fbe ce5e 1dbf
00000350: 2f60 d5bd 7588 a0bd 9b70 183e 337f 49be
00000360: 5e6c 30be 1a3e d0be 03bb 183f a955 89bd
00000370: 1788 843e 0fbc 99be fd22 05bf 7743 80be
00000380: aa09 5abd d92f a0be 1a3f 02bf 90fe b1bc
00000390: 40fd 21be d141 98be 6844 98be 3b10 1cbf
000003a0: dd8d c4be 3e78 34be 4e10 f7bd d703 53bf
000003b0: 55e6 fbbd 4198 ccbe c58a 39be 052e 85bd
000003c0: 718b f3be ed51 17bf 6079 c8be 3e9c 86be
000003d0: 48af 553e 406e 1fbe 7dfa c2be 0e4d d8be
000003e0: a6df 413e ea16 a0be 67c8 12be d98a 71be
000003f0: 5be9 d5be 4597 c9be 3e18 c7be c06e 7fbe

linear2.weight f4 [3, 256]
-0.013915381 -0.21552843 0.008068743 -0.01667893 -0.15349855 -0.15160426 -0.047337182 -0.098520264
-0.022773493 -0.21060517 0.0060258047 -8.110425e-05 0.006023211 -0.05485534 0.017897367 0.01640592
-0.101615645 -0.100121796 -0.03666594 0.24896765 -0.024889588 -0.0045668576 -0.0061558546 -0.6791634
0.016392732 -0.022525622 -0.25783792 -0.056115672 -0.013040477 0.004084833 -0.006613103 0.006596126
-0.13971998 -0.03768099 0.0015967716 -0.0437757 -0.011805918 -0.06720684 0.09593794 -0.00086844526
0.011284615 0.020730404 -0.015046246 0.034721203 -0.019334892 0.0063342336 0.009351989 0.012607775
0.016664399 -0.29415736 -0.5325872 -0.10440534 -0.0005929077 -0.061972734 0.037906364 -0.04068451
-0.012467105 -0.17313057 -0.10658671 0.26053086 -0.027776984 0.006367232 -0.1046891 0.006114789
-0.18886437 0.021801772 0.005581365 0.17722178 0.01792006 0.029699171 -0.0006242243 -0.1315084
-0.0027354688 0.029590469 0.021882923 -0.020908823 0.028402025 -0.03418106 -0.09309502 -0.010577561
-0.041577492 -0.023493206 -0.057411265 0.00035700502 0.0022672028 0.29678702 -0.07158142 -0.013451587
-0.007963136 -0.18960404 -0.12217039 -0.010964236 -0.026814463 -0.009705561 -0.017474446 -0.0049236035
-0.2589825 -0.3500794 -0.73861414 0.16410516 0.010691555 0.27909476 -0.009703037 0.021119038
-0.00506145 -0.09389282 0.018227136 -0.009478844 -0.005581263 -0.34677896 0.009019786 0.021948414
-0.3006954 -0.053558495 -0.024157602 -1.4288448e-05 -0.08701288 -0.06941324 0.031955197 -0.039597634
0.30497777 0.028478663 -0.0028118775 -0.021280661 -0.0488453 -0.0022799047 -0.044146806 -0.182836
-0.0063066916 -0.033630826 0.0022705283 0.10957132 -2.7427798e-09 -0.028735738 -0.045617666 -2.2964143e-06
0.0029375593 -0.30407953 8.9348003e-07 -0.0062727686 -0.1956528 0.0029455507 -0.40721604 0.042027522
0.0036678372 0.05507247 -0.026715312 -0.0006488713 -0.089174725 0.028042186 0.0007587765 0.0032287457
-0.01319482 -0.015319106 -0.08445164 -0.03933701 -0.017781973 0.01335016 0.0035657345 -0.017520718
-3.567692e-05 -0.020849032 -0.03955581 -0.0172757 -0.2830285 0.03700794 0.005650493 -0.05158506
0.5680433 -0.025236372 -0.12525734 -0.017707115 0.0026651535 0.04177375 -0.005410712 -0.0046425234
-0.14112604 0.012712735 -0.00065235194 0.00094800134 -0.07895642 -0.021232834 -0.20112796 0.005892513
0.19487828 -0.012331199 -0.02625934 -0.013498848 0.12840672 -0.31199083 -0.023134649 -0.0051810495
0.0059499443 -0.014641565 0.018504687 -0.004793273 -0.20085621 -0.12105617 -0.03245519 -0.22214022
-0.0049902066 0.32557154 0.09295409 0.026829138 -0.077721864 -0.29927716 -0.026082803 -0.0013194436
0.015567795 -0.4096883 0.014377854 -0.007869475 -0.026231552 0.0074556265 -0.0045866873 -0.13091771
-0.0021746315 -0.22199893 0.21958436 -0.17761843 0.30206242 -0.0063715787 0.033336002 -0.07737432
-0.005943117 -0.2564048 0.034368742 0.06541101 -0.28219798 0.023656977 -0.16835359 -0.0057897116
-0.10312735 -0.011049783 -0.0009338793 -0.12043612 -0.08101893 -0.0779025 -0.060671907 -0.20972359
-0.08781676 0.029497094 -0.09622522 -0.0035413366 0.4415975 0.054326694 -0.018788401 -0.13235629
0.18768406 0.024539288 -0.0048287422 -0.048625268 0.00025546082 3.202625e-05 -0.0061826454 0.0057088607
00000000: 57fd 63bc 7cb3 5cbe c332 043c 40a2 88bc
00000010: b92e 1dbe 263e 1bbe a2e4 41bd fec4 c9bd
00000020: 7a8f babc e2a8 57be 1d74 c53b 8316 aab8
00000030: 5b5e c53b feaf 60bd 809d 923c b565 863c
00000040: dd1b d0bd a80c cdbd 062f 16bd 60f1 7e3e
00000050: 40e5 cbbc 94a5 95bb 0db7 c9bb a7dd 2dbf
00000060: 0d4a 863c a787 b8bc 5503 84be 8cd9 65bd
00000070: baa7 55bc 10da 853b bbb2 d8bb 5124 d83b
00000080: c112 0fbe 6257 1abd c44a d13a 264e 33bd
00000090: 9c6d 41bc bda3 89bd 1c7b c43d 60a8 63ba
000000a0: 1be3 383c cfd2 a93c 8884 76bc d237 0e3d
000000b0: 3564 9ebc 678f cf3b 1639 193c d790 4e3c
000000c0: c783 883c cb9b 96be a257 08bf 78d2 d5bd
000000d0: 5d6d 1bba 1fd7 7dbd b443 1b3d cda4 26bd
000000e0: d442 4cbc 2449 31be 224a dabd 4d64 853e
000000f0: 8f8c e3bc 37a4 d03b 3d67 d6bd 915e c83b
00000100: a965 41be a199 b23c e2e3 b63b a079 353e
00000110: 17cd 923c ad4b f33c fca2 23ba 23aa 06be
00000120: 8d45 33bb b667 f23c d143 b33c fb48 abbc
00000130: 5dab e83c 7001 0cbd 9aa8 bebd 824d 2dbc
00000140: 294d 2abd d374 c0bc 1328 6bbd 672c bb39
00000150: 5a95 143b 78f4 973e 4899 92bd 0c64 5cbc
00000160: d077 02bc 9027 42be 7834 fabd 57a3 33bc
00000170: 01aa dbbc 1304 1fbc 9226 8fbc 2e56 a1bb
00000180: 5b99 84be 9b3d b3be d115 3dbf 2f0b 283e
00000190: a22b 2f3c 82e5 8e3e 7df9 1ebc d501 ad3c
000001a0: 85da a5bb e14a c0bd 1351 953c 274d 1bbc
000001b0: 07e3 b6bb 038d b1be b9c7 133c 29cd b33c
000001c0: bff4 99be 2760 5bbd 2ae6 c5bc 6bb8 6fb7
000001d0: cf33 b2bd 8728 8ebd 74e3 023d 2131 22bd
000001e0: 0c26 9c3e 164c e93c 7a47 38bb c854 aebc
000001f0: 0212 48bd 746a 15bb 48d3 34bd 5c39 3bbe
00000200: 5da8 cebb 7ac0 09bd 25cd 143b ee66 e03d
00000210: 7e7b 3cb1 3667 ebbc 97d9 3abd 191c 1ab6
00000220: 1184 403b 50b0 9bbe 7bd7 6f35 cc8b cdbb
00000230: 3559 48be 240a 413b 9f7e d0be 0d25 2c3d
00000240: 1960 703b ac93 613d 12da dabc 0419 2aba
00000250: 3da1 b6bd bab8 e53c a1e8 463a 5d99 533b
00000260: 162f 58bc fdfc 7abc fbf4 acbd d81f 21bd
00000270: 80ab 91bc a1ba 5a3c 19af 693b 9c87 8fbc
00000280: cda3 15b8 97cb aabc 4605 22bd c585 8dbc
00000290: 1de9 90be a395 173d c527 b93b db4a 53bd
000002a0: 496b 113f 82bc cebc 7643 00be 830e 91bc
000002b0: dba9 2e3b f41a 2b3d 584c b1bb 4f20 98bb
000002c0: 5883 10be 1349 503c 9902 2bba 4b83 783a
000002d0: e7b3 a1bd 7bf0 adbc 7df4 4dbe fb15 c13b
000002e0: 2c8e 473e cc08 4abc d41d d7bc 462a 5dbc
000002f0: 0d7d 033e 43bd 9fbe e084 bdbc cbc5 a9bb
00000300: c0f7 c23b 2de3 6fbc 2497 973c e310 9dbb
00000310: 40ad 4dbe 4cec f7bd bcef 04bd ba78 63be
00000320: e384 a3bb 50b1 a63e b75e be3d c8c8 db3c
00000330: a42c 9fbd db3a 99be 9aab d5bc 2ef1 acba
00000340: 1110 7f3c aac2 d1be 1791 6b3c f8ee 00bc
00000350: 8de3 d6bc 544e f43b ec4b 96bb 4b0f 06be
00000360: 4384 0ebb b053 63be b9da 603e 9be1 35be
00000370: eda7 9a3e adc8 d0bb 558b 083d 6d76 9ebd
00000380: 7bbe c2bb 7d47 83be 3dc6 0c3d 35f6 853d
00000390: 417c 90be 47cc c13c e264 2cbe 9fb7 bdbb
000003a0: 6f34 d3bd 260a 35bc 94cf 74ba 36a7 f6bd
000003b0: 41ed a5bd 598b 9fbd 1b83 78bd c8c1 56be
000003c0: 46d9 b3bd e4a3 f13c ba11 c5bd c515 68bb
000003d0: 1119 e23e ab85 5e3d 22ea 99bc 6888 07be
000003e0: 4030 403e 9e06 c93c 6d3a 9ebb 4a2b 47bd
000003f0: 5fef 8539 ed53 0638 ca97 cabb 6511 bb3b

linear2.bias f4 [3]
0.3584215 0.10400465 0.066892885
00000000: 0683 b73e 6400 d53d 23ff 883d
