Snake Game AI (Q-Learning)/v.0.0.3 (FINAL WORKING VERSION)/model/model.pth (torch, 17216 bytes, 4 tensors)

linear1.weight f4 [256, 11]
00000000: e925 30be 517c c03e 3608 63be 2f80 8dbe
00000010: 0a7f d3bd 98bd 17be 113f 653e bada 053e
00000020: 8ed3 693e 5229 c73e 917e 12be 4ad3 1b3e
00000030: 14d7 b7be b4c7 7d3c 4f84 b63d 9b08 65bc
00000040: 276c 923d 8b2a 903d 323b 19be 5949 a0bd
00000050: 2e55 283d 3dbc c53d a568 3f3e d86c 143e
00000060: 5779 8bbe 7148 37be 487e 0dbe 15ff 32be
00000070: 3e28 1cbd b43b 803d f5ba ce3c fb23 e7bd
00000080: 6698 c3bc f7c2 03be 0e48 e8bc c33e d93e
00000090: aac9 2c3e da31 30be ff91 893c 6daa 5a3e
000000a0: f25a 713c 4d19 a4be 1bd2 313d dfb8 e3bd
000000b0: 72e9 bfbd f74a 2fbe f066 11bd e9ab e1bb
000000c0: 1a07 2dbe 45a3 14bd 3fc3 63bd 40b2 f13d
000000d0: 95cd 443d 6506 c9bd 9285 6cbd d4ea 71be
000000e0: 1ecd bd3d 48cf fcbd 2c75 473c 04ca 81be
000000f0: ea01 423e d9cd 153d 2f87 47be e316 253e
00000100: d000 aebe 8e70 b6be bb48 63bd 3a0b 29bc
00000110: a831 1dbe 0c41 aa3e e45c 86be 6f93 aabd
00000120: e2a0 823e 78d8 3d3e 5480 abbe 7c18 02bf
00000130: b8d5 febe e786 173d f99c e0bd 5f82 12be
00000140: 391b 923d a177 37be f4c1 88be d60f 41be
00000150: 78a7 173d a60c 3b3e 1f56 96bd d453 72bd
00000160: 6c42 353e ce3c c4be 5b19 983e 0f00 52be
00000170: 02a4 4a3d d174 9e3c 1f4f 8b3e 4d21 173e
00000180: 0a78 a3be 950b 90be f1b1 25be e482 0c3e
00000190: 3ada 483c e7ca ed3d f289 633d ebb8 513d
000001a0: 695b 3cbe a309 12be 9e2b 9cbd 94fd a23b
000001b0: ab0f 9bbe ae76 fabd 3672 833e e68f d9be
000001c0: 7933 00be 2cd4 553e 0cab 043e ea4d 4b3d
000001d0: abd0 06be 5074 5dbe c9f8 e0be a0ed b33d
000001e0: dbac e13d b109 ba3e 080f 14bf 6cce b93e
000001f0: 8b00 47be 979e a7bd e173 213e d1dd 2cbc
00000200: 8445 383d cb20 223e f931 aebe 3ef7 41be
00000210: 4339 b23d ac2c 6f3d fec4 36be ee41 6abe
00000220: 3747 9ebd ae18 05bd e75e c33d fad2 543d
00000230: d63a 2f3b d6d2 9bbe e130 abbe bf89 abbc
00000240: add2 303e aeb7 c13e 5e65 b3bd 41af 22bf
00000250: c417 1b3d de27 7abe a36f e6be 5190 a1be
00000260: cc45 2d3e d402 eabe 318d 44be d185 26bd
00000270: 3bf7 8cbe 19c3 04be 4ee5 b23e f241 dbbd
00000280: 2ad1 5ebe e8e6 f2be 9bea 0f3c eb99 ddbd
00000290: 8905 09bf b160 783e 1207 3e3d 03c0 403e
000002a0: 259e 86bd f27f 2dbe 236f 9bbe cf5b f5bd
000002b0: bde4 adbd 9338 50be fedb 8d3d 2e62 93be
000002c0: fbf3 bfbe 55af 8cbe 9821 463d ce41 f9bc
000002d0: 432e 2bbc 2719 d2bb 9c90 81be f5ba e6bc
000002e0: 0303 37bd 15a3 07be 8346 26be 34a0 7a3b
000002f0: 20a4 13be e2f0 763d 1323 38bc 531a bcbe
00000300: 9a77 81be b5e8 50be f334 30be f34f 6cbe
00000310: f176 8bbe 7e7d f73c d507 9dbe c62d 7cbe
00000320: 389f 0c3e 430e 4b3e bd0b ac3d a659 7bbe
00000330: b63e d9bd c870 fcbd 2896 c8bc 5c56 37bd
00000340: 240a a4bd 881e 91be 98b0 333e 24b5 88be
00000350: 630b 1cbe 4e78 84be 3f4f 16be c1cd a7bb
00000360: 883f c4be 3af4 053e 2df7 0fbe 5c17 e6bd
00000370: 192d 9f3e fd50 78be 6e1d 163d 2013 efbd
00000380: e549 8abe bc0a 20be d848 203e c1d4 f33c
00000390: e2c8 c13d 3b45 0abd 285e adbe c22f 27be
000003a0: 0a7d 88bd de2c 433d 7dff fcbd 28a8 a7bc
000003b0: 805d d9bc ab6b 01be 05a3 ddbc 11f3 303c
000003c0: f27e 0abe 6183 78bd 8193 edbd 67e7 fabd
000003d0: 27b7 163c 06dc a1be cdab c93d 9167 a43e
000003e0: ef4f 79be 18a5 adbe d090 10bf 98d0 2c3e
000003f0: 0951 d3be 28cd d7be ba4d 46bd eba5 88bd
-0.17201962 0.37594846 -0.22171101 -0.2763686 -0.10326965 -0.14818418 0.22387339 0.13071719
0.22834608 0.38898712 -0.14306094 0.15217319 -0.3590628 0.0154895075 0.089119546 -0.0139791025
0.07149535 0.070393644 -0.14963987 -0.0782649 0.04109686 0.09655044 0.18692262 0.14494646
-0.27241012 -0.17898728 -0.13817704 -0.17480119 -0.038124315 0.062613875 0.025235632 -0.112861596
-0.02387638 -0.12867342 -0.02835467 0.42430696 0.16873804 -0.17206517 0.01679325 0.21354075
0.014731156 -0.32050553 0.043413263 -0.11119246 -0.09370698 -0.1711844 -0.03549856 -0.0068869484
-0.1689724 -0.03628852 -0.055606123 0.118015766 0.04804762 -0.09815673 -0.05774457 -0.23624736
0.092676386 -0.12344223 0.012173932 -0.25349438 0.18946043 0.036573265 -0.19485162 0.16122012
-0.33984995 -0.35632747 -0.055489283 -0.010317618 -0.15350974 0.33252752 -0.26242745 -0.08328902
0.2551337 0.18539608 -0.33496344 -0.5081861 -0.4977243 0.036993887 -0.1096744 -0.14307545
0.071340986 -0.17916729 -0.26710474 -0.18853697 0.037024945 0.18266544 -0.07340645 -0.059161976
0.17701119 -0.3832764 0.29706845 -0.20507835 0.049472816 0.019342812 0.27208802 0.14758797
-0.3192752 -0.28133836 -0.1618116 0.13721806 0.0122590605 0.11610966 0.055551477 0.051201742
-0.18394245 -0.14261489 -0.07625507 0.0049740765 -0.3028539 -0.122296676 0.25673074 -0.42492598
-0.12519635 0.20881718 0.12955874 0.04963485 -0.13165538 -0.21626401 -0.43939808 0.08785558
0.11019298 0.3633552 -0.57835436 0.362903 -0.19433801 -0.081845455 0.1576686 -0.010550932
0.04498817 0.15832822 -0.340225 -0.18941972 0.08702328 0.05839221 -0.17848584 -0.22876713
-0.07728427 -0.03249424 0.095395856 0.051959015 0.002673795 -0.30434293 -0.3343573 -0.020939706
0.17267866 0.3783545 -0.08759569 -0.63548666 0.03786446 -0.2442927 -0.45007047 -0.31555417
0.16921157 -0.45705283 -0.19194485 -0.04065496 -0.27532372 -0.12965049 0.3494057 -0.107059374
-0.21759477 -0.47441792 0.008783962 -0.10820373 -0.5352407 0.24255635 0.04639346 0.18823247
-0.065731324 -0.16943339 -0.30358228 -0.11980402 -0.08490894 -0.20334081 0.06926726 -0.28785843
-0.3749083 -0.27477518 0.04837188 -0.030426886 -0.010448041 -0.00641169 -0.2530564 -0.02816532
-0.044680607 -0.13245805 -0.16237836 0.003824246 -0.14418077 0.060288318 -0.011238831 -0.36738834
-0.2528656 -0.2040127 -0.17207699 -0.23077373 -0.27239183 0.030211207 -0.30670038 -0.24626836
0.13732612 0.19829659 0.084006764 -0.24545917 -0.10607664 -0.12326199 -0.024485663 -0.044760093
-0.08009747 -0.28343606 0.17547834 -0.267007 -0.15238719 -0.25873035 -0.14678667 -0.0051209633
-0.3832972 0.13081446 -0.14059134 -0.11234924 0.31089094 -0.24249645 0.03664916 -0.1167357
-0.27009502 -0.15629095 0.15652788 0.029764535 0.094621435 -0.03375743 -0.33860898 -0.16326812
-0.06664474 0.04765021 -0.12353418 -0.020465925 -0.026533842 -0.12638728 -0.027055273 0.010800139
-0.13524988 -0.060672168 -0.116004 -0.12251168 0.00919894 -0.31613177 0.098472215 0.32110265
-0.24346898 -0.3391502 -0.56470966 0.16876447 -0.41272762 -0.4214871 -0.04841397 -0.06672271

linear1.bias f4 [256]
00000000: 3b30 45be 4488 f7be 8f52 a4be b0a6 ae3c
00000010: 6893 eebd 7ed3 b93c 4125 f1bc 82ee bcbe
00000020: 4898 88be 73ad b5be e2d1 a6bd 022f 2c3c
00000030: 38b4 1c3d 3de0 123e 2d76 d63d 6cef 21bd
00000040: 295b 233c 3c1c d43d bee8 bbbe 158d 4fbe
00000050: d13e 02bc 4322 3bbd fe55 933d 77c3 06bd
00000060: 4159 e1bd eb9a 9cbd ae8c e1be 51c5 143d
00000070: 878e a2be 577b e0bd bdbe 5cbe 79eb 563d
00000080: dfa2 703d 407c 543c 7568 253e c997 20bd
00000090: 4740 afbe 70f3 90be f212 dfbd 2550 493e
000000a0: 9770 2a3e fc7e 5abd fd8c 4ebe c335 0dbe
000000b0: 7b59 9e3d 8746 35be 0d87 2cbe b108 723d
000000c0: 6b11 94bd 5495 40bd 8fa0 ddbc ecf9 d8bd
000000d0: 07fa b6be be55 bdbe 183b c9bd f06b d6bd
000000e0: 516d 51be 757f ebbd 55ff 933e f6ba d2bd
000000f0: 2cec 10bd 936a acbe 8516 89be 72ce d5bd
00000100: 6d84 a03e 0530 15bd 55ff 1e3d 23b4 293e
00000110: 9119 4ebd fa54 b2be 442e b5be 322e d23d
00000120: 52c7 9fbd d4fb 7a3e a2e8 20be 3489 9dbd
00000130: 845f 8c3e 1a8f f5be 8b05 7abe e492 cc3d
00000140: 2714 8bbd b2c4 6b3c e374 1d3c 18be 8bbd
00000150: 4c0c a6be 08ce e3bd 683d 77be e7ed b9be
00000160: 28de 4bbe 4d14 8d3d 8a1f 33be c405 2cbe
00000170: ca27 483e 3670 733b 22bb 73be ba6c a9be
00000180: 52f8 fcbd f494 8bbe d557 20be 99c6 e33e
00000190: 0747 043f f011 b53d 43c0 91bd d460 3e3e
000001a0: 28cf e4bd 5787 a3be 5766 3cbe 873f 3ebe
000001b0: 56ac 14be 8245 16bd 4614 4abe b2be d4bc
000001c0: e26a debe ccef 24bd 2688 42be dc6d d2bd
000001d0: 9440 42be 3f61 be3d 7b14 e5bd 850a 88be
000001e0: 9ef6 82bd fb4a f9bd 36f9 56be 4230 e3be
000001f0: dde7 94be 1859 a9be 4abd a7bc 5331 823d
00000200: 74b2 2fbc 6d93 0cbe ec1f 86be bdd1 03bd
00000210: af5d bbbe f431 06be 59c7 443d 426a cbbd
00000220: 8a0b 5b3c f87d 063d 0b8f 72be 77ed a0bd
00000230: 9eee b13e a07e 86bc e2e5 e6bd 8c58 96be
00000240: 4a21 a43c cf14 453e a9d0 433e b7f5 b5be
00000250: 42c1 8fbe f4d3 313e 07de 6dbe 6c99 c0bd
00000260: 71cc 77be e29a 39be 01a8 90bd fc9e 75be
00000270: 005e 2d3e 0ce4 df3e 6d8e a23e 61ad 583d
00000280: df94 313e e056 4b3c cd06 76be fac8 903d
00000290: 0ca5 a23d 9ec8 dabd 57de f6bd 90f8 acbd
000002a0: a58e 233e bd1c 093d 5875 8fbd 3bb8 87be
000002b0: f102 b4be 36a2 e3bd 0e42 b93d 7d45 a3bc
000002c0: ee3b 39be 73da 8abe 9db9 24be c5a2 3dbe
000002d0: f68b 673a 6386 15be 8720 69be b0a7 6b3d
000002e0: 4162 bebb 3f35 c23c c85f 3cbe 01fa bebe
000002f0: 2d44 cc3d 11e4 903e 50ea aabe 9a42 a7be
00000300: c47b 6ebe 788b cd3c 54d6 42be d7c5 87be
00000310: 530e 8bbe 9bda 2d3c 1f20 8ebc 0b8e debd
00000320: f324 a1be 9655 c8bd 0dc0 35be 95ea 153e
00000330: b052 87be 6eeb fe3d f271 92bd 9b00 f0bd
00000340: 3e39 a7bd 9f95 943d f97d a5be f72f d1be
00000350: b01f 92bd ef24 11be 9103 21be dd09 8cbe
00000360: b00a a3be d24b aabd ddbb 13be 36f9 72be
00000370: 4d8b adbd 231d 10be 9e23 c0bc dd95 d0be
00000380: 39a6 0f3d 2467 973e aa81 a4bc e4f6 2c3e
00000390: e3c3 27be a21d 58be 7c73 98be 4128 6abd
000003a0: 2f45 003e 8a48 feba 0875 15be ebcf 96be
000003b0: c7a0 3f3e e622 80be ccf0 bbb9 4811 6a3c
000003c0: 70d1 d1bd 8475 7ebc 92ad 963e 22e2 493d
000003d0: e5b6 6dbe 0027 1a3d d276 84be 72e8 62be
000003e0: 8568 fb3d be37 0c3e 6e5e 763e 81d3 86be
000003f0: 732a 413e 4134 e6bc 9f4b 8fbe 67f9 5dbe
-0.1925668 -0.4834615 -0.32094237 0.021319717 -0.11649209 0.022683855 -0.02943671 -0.36900717
-0.2667868 -0.35483894 -0.08145501 0.010509254 0.038257807 0.14343353 0.10471759 -0.03953497
0.009970465 0.10356948 -0.36701006 -0.20268662 -0.007949547 -0.04568697 0.07194136 -0.032901254
-0.11003352 -0.07646736 -0.44052643 0.036320988 -0.31749365 -0.10961025 -0.21557136 0.052470658
0.058749076 0.012969077 0.16153128 -0.039207254 -0.34228727 -0.28310728 -0.108922854 0.19659479
0.16644512 -0.053343758 -0.2017097 -0.1379004 0.07731911 -0.17702685 -0.16848393 0.05909032
-0.07229885 -0.04701741 -0.0270541 -0.10594544 -0.3573763 -0.3697948 -0.09825724 -0.10469806
-0.20451857 -0.1149892 0.2890574 -0.10289566 -0.03538148 -0.3367506 -0.26774994 -0.10439767
0.31351033 -0.036422748 0.038817722 0.16572623 -0.05031735 -0.34830457 -0.3538686 0.10262717
-0.07801689 0.24510127 -0.15713742 -0.07692185 0.27416623 -0.4796074 -0.24416177 0.09988955
-0.06790953 0.014390158 0.0096103875 -0.06823367 -0.32431257 -0.11123282 -0.24144518 -0.36314318
-0.19908965 0.06888638 -0.174925 -0.16799074 0.19546428 0.003714574 -0.23801854 -0.33090764
-0.12352051 -0.2726208 -0.15658505 0.44487455 0.5167088 0.08841312 -0.07116749 0.18591624
-0.111723244 -0.31939194 -0.18398415 -0.18578921 -0.14518866 -0.03668738 -0.19734296 -0.025969837
-0.4344092 -0.04026775 -0.18997249 -0.1027486 -0.18969947 0.09295892 -0.11185547 -0.26570526
-0.06394695 -0.121725045 -0.20993504 -0.44372755 -0.29083148 -0.33075786 -0.020476002 0.06357064
-0.010723699 -0.13728113 -0.2619623 -0.032182444 -0.36594912 -0.13104993 0.048041675 -0.099323764
0.01336945 0.032834977 -0.23687379 -0.07857793 0.34752363 -0.016417801 -0.112743154 -0.2936443
0.020035405 0.19246219 0.19122566 -0.35539028 -0.28077132 0.1736601 -0.23229228 -0.09404263
-0.24199082 -0.1812549 -0.07063294 -0.23986429 0.1693039 0.43728673 0.31749287 0.052899722
0.17341946 0.012410849 -0.24026032 0.07069583 0.079416364 -0.10682796 -0.12054127 -0.08445847
0.15972383 0.033474673 -0.070048034 -0.26507744 -0.35158494 -0.11114924 0.09045802 -0.019930596
-0.18089268 -0.2711979 -0.16086431 -0.18519123 0.00088328065 -0.14602046 -0.22766314 0.057532966
-0.0058100526 0.02370703 -0.18395913 -0.37300113 0.09973941 0.28299 -0.3338189 -0.32668
-0.232894 0.025090918 -0.19027072 -0.26518127 -0.27159366 0.010611202 -0.0173493 -0.10866936
-0.31473503 -0.09781949 -0.17749043 0.14640267 -0.26430273 0.124472484 -0.071506396 -0.117188655
-0.08165215 0.072551005 -0.32322672 -0.40856907 -0.0713495 -0.14174245 -0.15724017 -0.27351275
-0.3184409 -0.08315243 -0.14427133 -0.23727879 -0.08473835 -0.14073615 -0.023454484 -0.40739337
0.03507063 0.29570878 -0.02008136 0.16891056 -0.16383319 -0.21105054 -0.29775608 -0.057167295
0.12526391 -0.001940028 -0.14595425 -0.29455504 0.18713675 -0.25026625 -0.00035846827 0.014286347
-0.10245025 -0.015530948 0.294293 0.049287923 -0.232143 0.03763485 -0.25871903 -0.22158983
0.12275795 0.13693139 0.2405946 -0.2633324 0.1886385 -0.028101088 -0.27987382 -0.2167717

linear2.weight f4 [3, 256]
00000000: f4b5 82bd 65a9 893c 0dd9 63bd 978d 963d
00000010: 6110 99ba cc37 21be becf 553e 844f 5bbd
00000020: 5aad 17bc 1741 283c 022c 5bbb 2bc9 193d
00000030: a3c6 b8bd b3db 123e 3b59 3f3e 305b 043c
00000040: cd17 0a3c c6d5 243c c967 2abc 5051 a5bc
00000050: eefd 0abd 5978 153b 010c 463e 504d e93d
00000060: cf1d c63c 097b 3cbc d984 753c 48aa 073e
00000070: 653c 18bd 5329 1cbd 73a9 fe3c 278d 5dbe
00000080: 36f0 b03d e373 66bc 8bc5 06bd 3840 16be
00000090: dc33 dabc ced5 afb8 c1bf a13c aca0 383d
000000a0: 8f6d 003e 846d 813c e529 d4bc aec5 323c
000000b0: 0563 6b3d f3f3 2fbe 8236 11be 10ff 87be
000000c0: e28d d83d 0d49 b6bb c348 dd3b 9f5b fcbd
000000d0: 8191 5dbd 9600 a2bc 8304 26be f3ea 31bd
000000e0: 1ab9 013d 68ed 31bd 840b 143e 36da 873a
000000f0: 8cf1 a13c d7b5 083d 47d3 79bc 16d1 5bbc
00000100: 606c db3d be38 043d 4072 c63c 0885 6cbe
00000110: cb02 e1bc e4f4 6abc 7479 a13b a469 cb3c
00000120: fa0c 113d 2d48 1f3e 2f55 2ebc 6b12 9cbd
00000130: 31db 063e 40a7 04bc a1de 11bd 324c 293d
00000140: 2cd1 833b 5c96 f0ba 004b 2e3d d0da 59bd
00000150: fab4 72bc 1cdd dfbd 0340 f9bb 98db 65bd
00000160: 064e 1abc 5f75 893e 7eb8 fdb9 8e31 91bc
00000170: 7cdf 263e c2f3 1ebe 19aa 36bb fa79 0cbd
00000180: ca79 5ebe 497a 963c 09e7 59bb 017f c53d
00000190: 8667 553e 238b 233d f18c 063b be03 0f3e
000001a0: 20b9 89bc 97b1 e9bc 0c41 3cbd 0d22 10bd
000001b0: 3a91 e0be a485 4dbd d37b 1dbd 4002 31be
000001c0: 8d2f 5fbc f89b 9fbc cc41 d5bc 0956 aebd
000001d0: 1762 153c 47e4 83bd b89b 0abb 57ca 8eba
000001e0: 21a7 013d ca1d b1bc 32c0 01be 5484 cfbd
000001f0: c63e 9b3c d3fa 4cbc fd2e 32bd 4334 2e3e
00000200: 3ce4 413c e094 2b3c 1c72 08be 3286 9cbd
00000210: 3a74 13bc e455 893d 3186 233e 29c5 ca3c
00000220: cf7b 163e dbec b73d b160 4bbe e309 15be
00000230: 728b cb3d e582 08be 2e8b c73d daa9 6b3c
00000240: 6451 19bc 9f68 2a3e 0d71 453e 1aaf 12b7
00000250: a704 1fbc 5acc a53d 343c 993c 7b57 11bd
00000260: 9f49 88be e566 6dbc 772c f9bd b0eb 1a3c
00000270: 9f1d 733d 9fab 103e d8d9 1e3e 2344 9dbc
00000280: 1465 1f3d 75cf 073e 08d1 e9bc 5679 013e
00000290: 8c64 913e 8780 5fbe 00da 233e f28a cd3a
000002a0: 8b3f 033e 8f74 9dbd 2056 933b 54de 1dbd
000002b0: d299 993d 309e 993d 0686 303d d5ce f0bc
000002c0: 0c4c e1bb b3ef 5c3c 0715 14be 8a3a cb3b
000002d0: 2a24 ef3a 8627 6d3e d757 d83d 95f6 ba3d
000002e0: f336 cabd 8b35 af3c 5315 0b3d 90d1 fdbb
000002f0: 01f6 453e 5f30 fc3d ff21 74bd fb87 51bc
00000300: 8b29 693c 05d6 c03c 9dc8 133c b943 ffbb
00000310: 5038 1dbc 2090 9abc 6045 993d 675b d7bb
00000320: c061 f2bd b212 7bbc 1f48 0c3e 8108 c93d
00000330: f19e 913c 8b28 84be a0d8 0dbe 10ff 5cbe
00000340: 4727 87bc 7bcc 6c3d 99af 26bd 2ac9 a2bc
00000350: 6a34 08be 71cf 44bd 2ff9 973c 8a4d edbd
00000360: f1ca 47be 5650 a43b 278a 6abe 3eb9 d93c
00000370: 20ed ce3c ae05 83bd 66d7 39be db27 10be
00000380: 206a 3f3d 1fc4 463e 062f 34be ccb8 8d3c
00000390: fb8b 91bc 7b9c 17be bb09 63bd 6060 1b3e
000003a0: 85e2 8d3e 14d3 80bc 01c3 b43d 3050 bdbc
000003b0: abd8 373e 0342 9dbe da58 2fbd fad5 b1bd
000003c0: b51a 64bd dd00 543e e509 693e f75f 07bc
000003d0: 8969 07bc 5774 39bd 9708 c23b a0aa 47bc
000003e0: 243f 8f3c 43eb 583e d547 1e3e 97f6 b43c
000003f0: 10f2 0e3e 64ab 42bd 8dc4 b8bc d0a2 ed3c
-0.06382361 0.016804406 -0.055626918 0.07351225 -0.0011677855 -0.15743941 0.20880029 -0.05354263
-0.009257639 0.010269425 -0.0033442979 0.037545364 -0.09022262 0.14341621 0.18686382 0.008078381
0.008428526 0.010060733 -0.010400721 -0.020180374 -0.033933572 0.0022807328 0.19340517 0.11391699
0.024184136 -0.011503943 0.014985287 0.13248551 -0.03716697 -0.038125347 0.031086659 -0.21635877
0.086395666 -0.0140657155 -0.032903235 -0.14672935 -0.026636057 -8.3844745e-05 0.019744756 0.045075104
0.12541793 0.015799291 -0.025898883 0.010911388 0.05746748 -0.17182903 -0.1418095 -0.26561785
0.10573937 -0.0055629076 0.0067530586 -0.12322163 -0.05409384 -0.01977567 -0.16212659 -0.043436956
0.031670667 -0.0434393 0.14457518 0.0010364715 0.019768499 0.03337654 -0.015248126 -0.013416549
0.1071403 0.032280676 0.0242244 -0.23097622 -0.027467152 -0.014340613 0.0049278084 0.024830647
0.035412766 0.15554877 -0.010640427 -0.076207004 0.13169552 -0.008096516 -0.035612706 0.04133243
0.004022738 -0.0018355357 0.042551994 -0.05318719 -0.014813656 -0.10930845 -0.0076065077 -0.056117624
-0.009418016 0.2684736 -0.00048393378 -0.017723825 0.1629619 -0.15522674 -0.0027872382 -0.034296013
-0.21726146 0.018368857 -0.003324928 0.09643365 0.20840272 0.039927613 0.0020530785 0.13966271
-0.016811907 -0.028527064 -0.04596047 -0.035188723 -0.438608 -0.050176278 -0.038448166 -0.17286015
-0.013622177 -0.019483551 -0.026032351 -0.08512504 0.009117625 -0.06440025 -0.0021149945 -0.0010894042
0.031653527 -0.02162065 -0.12670973 -0.101326615 0.018950831 -0.012510973 -0.043501843 0.17012124
0.0118342005 0.010472506 -0.1332478 -0.07642783 -0.008999879 0.067058355 0.15969159 0.024752216
0.14695667 0.089807235 -0.19861104 -0.14554553 0.099387065 -0.13331182 0.09743343 0.0143837575
-0.009357784 0.16641472 0.19281407 -8.743047e-06 -0.009705699 0.080956176 0.018705465 -0.03548382
-0.26618668 -0.014489864 -0.12166684 0.009455606 0.05935442 0.14127968 0.15512788 -0.01919753
0.038914755 0.13262732 -0.028542057 0.12643942 0.28397024 -0.21826373 0.16001129 0.0015681668
0.12817208 -0.076882474 0.004496351 -0.038542107 0.07500042 0.07500875 0.043096565 -0.0293955
-0.0068755206 0.013484883 -0.14461146 0.0062020468 0.0018245031 0.23159608 0.10563629 0.09129063
-0.09873762 0.021387836 0.033955883 -0.007745929 0.19332124 0.123139136 -0.059602734 -0.012788768
0.014231096 0.023539552 0.009019998 -0.0077900556 -0.0095959455 -0.018867552 0.07483935 -0.0065721753
-0.118350506 -0.0153242815 0.13699387 0.09816075 0.017775984 -0.25812182 -0.13852167 -0.21581674
-0.016498221 0.057812195 -0.040694807 -0.019871313 -0.13301244 -0.048049394 0.018551437 -0.11587055
-0.1951101 0.0050144596 -0.22904263 0.026577588 0.025259554 -0.06397568 -0.18148574 -0.14077704
0.046732068 0.19410752 -0.17596063 0.017300032 -0.017766943 -0.14805786 -0.0554292 0.15173483
0.27711883 -0.01572565 0.088262565 -0.023109525 0.17953746 -0.30714425 -0.042809345 -0.08683391
-0.055689532 0.20703454 0.2275768 -0.008262626 -0.008264908 -0.045276966 0.005921434 -0.012186676
0.017486162 0.21183495 0.15457089 0.02209024 0.13959527 -0.047526732 -0.02255466 0.0290083

linear2.bias f4 [3]
00000000: da1e 243e 410f 173d fab2 7abb
0.16027394 0.03687978 -0.003825365
